<?xml version="1.0"?>
<net name="Model0" version="11">
	<layers>
		<layer id="3" name="input_ids" type="Parameter" version="opset1">
			<data shape="?,?" element_type="i64" />
			<output>
				<port id="0" precision="I64" names="input_ids">
					<dim>-1</dim>
					<dim>-1</dim>
				</port>
			</output>
		</layer>
		<layer id="2" name="attention_mask" type="Parameter" version="opset1">
			<data shape="?,?" element_type="i64" />
			<output>
				<port id="0" precision="I64" names="attention_mask">
					<dim>-1</dim>
					<dim>-1</dim>
				</port>
			</output>
		</layer>
		<layer id="1" name="position_ids" type="Parameter" version="opset1">
			<data shape="?,?" element_type="i64" />
			<output>
				<port id="0" precision="I64" names="position_ids">
					<dim>-1</dim>
					<dim>-1</dim>
				</port>
			</output>
		</layer>
		<layer id="0" name="beam_idx" type="Parameter" version="opset1">
			<data shape="?" element_type="i32" />
			<output>
				<port id="0" precision="I32" names="beam_idx">
					<dim>-1</dim>
				</port>
			</output>
		</layer>
		<layer id="4" name="Constant_50303" type="Const" version="opset1">
			<data element_type="f32" shape="" offset="0" size="4" />
			<output>
				<port id="0" precision="FP32" />
			</output>
		</layer>
		<layer id="5" name="ShapeOf_50289" type="ShapeOf" version="opset3">
			<data output_type="i64" />
			<input>
				<port id="0" precision="I64">
					<dim>-1</dim>
					<dim>-1</dim>
				</port>
			</input>
			<output>
				<port id="1" precision="I64">
					<dim>2</dim>
				</port>
			</output>
		</layer>
		<layer id="6" name="Constant_50291" type="Const" version="opset1">
			<data element_type="i32" shape="1" offset="0" size="4" />
			<output>
				<port id="0" precision="I32">
					<dim>1</dim>
				</port>
			</output>
		</layer>
		<layer id="7" name="Constant_50293" type="Const" version="opset1">
			<data element_type="i32" shape="" offset="0" size="4" />
			<output>
				<port id="0" precision="I32" />
			</output>
		</layer>
		<layer id="8" name="Gather_50294" type="Gather" version="opset8">
			<data batch_dims="0" />
			<input>
				<port id="0" precision="I64">
					<dim>2</dim>
				</port>
				<port id="1" precision="I32">
					<dim>1</dim>
				</port>
				<port id="2" precision="I32" />
			</input>
			<output>
				<port id="3" precision="I64">
					<dim>1</dim>
				</port>
			</output>
		</layer>
		<layer id="9" name="Constant_50296" type="Const" version="opset1">
			<data element_type="i64" shape="1" offset="4" size="8" />
			<output>
				<port id="0" precision="I64">
					<dim>1</dim>
				</port>
			</output>
		</layer>
		<layer id="10" name="Constant_50298" type="Const" version="opset1">
			<data element_type="i64" shape="1" offset="12" size="8" />
			<output>
				<port id="0" precision="I64">
					<dim>1</dim>
				</port>
			</output>
		</layer>
		<layer id="11" name="Constant_50300" type="Const" version="opset1">
			<data element_type="i64" shape="1" offset="20" size="8" />
			<output>
				<port id="0" precision="I64">
					<dim>1</dim>
				</port>
			</output>
		</layer>
		<layer id="12" name="Concat_50301" type="Concat" version="opset1">
			<data axis="0" />
			<input>
				<port id="0" precision="I64">
					<dim>1</dim>
				</port>
				<port id="1" precision="I64">
					<dim>1</dim>
				</port>
				<port id="2" precision="I64">
					<dim>1</dim>
				</port>
				<port id="3" precision="I64">
					<dim>1</dim>
				</port>
			</input>
			<output>
				<port id="4" precision="I64">
					<dim>4</dim>
				</port>
			</output>
		</layer>
		<layer id="13" name="Broadcast_50304" type="Broadcast" version="opset3">
			<data mode="numpy" />
			<input>
				<port id="0" precision="FP32" />
				<port id="1" precision="I64">
					<dim>4</dim>
				</port>
			</input>
			<output>
				<port id="2" precision="FP32">
					<dim>-1</dim>
					<dim>4</dim>
					<dim>0</dim>
					<dim>64</dim>
				</port>
			</output>
		</layer>
		<layer id="14" name="ReadValue_49913" type="ReadValue" version="opset6">
			<data variable_id="past_key_values.9.valuepresent.9.value" variable_type="f32" variable_shape="?,4,?,64" />
			<input>
				<port id="0" precision="FP32">
					<dim>-1</dim>
					<dim>4</dim>
					<dim>0</dim>
					<dim>64</dim>
				</port>
			</input>
			<output>
				<port id="1" precision="FP32" names="past_key_values.9.value">
					<dim>-1</dim>
					<dim>4</dim>
					<dim>-1</dim>
					<dim>64</dim>
				</port>
			</output>
		</layer>
		<layer id="15" name="Constant_49379" type="Const" version="opset1">
			<data element_type="i32" shape="" offset="0" size="4" />
			<output>
				<port id="0" precision="I32" />
			</output>
		</layer>
		<layer id="16" name="Gather_49380" type="Gather" version="opset8">
			<data batch_dims="0" />
			<input>
				<port id="0" precision="FP32">
					<dim>-1</dim>
					<dim>4</dim>
					<dim>-1</dim>
					<dim>64</dim>
				</port>
				<port id="1" precision="I32">
					<dim>-1</dim>
				</port>
				<port id="2" precision="I32" />
			</input>
			<output>
				<port id="3" precision="FP32">
					<dim>-1</dim>
					<dim>4</dim>
					<dim>-1</dim>
					<dim>64</dim>
				</port>
			</output>
		</layer>
		<layer id="17" name="Constant_41512" type="Const" version="opset1">
			<data element_type="f32" shape="1, 1, 2048" offset="28" size="8192" />
			<output>
				<port id="0" precision="FP32">
					<dim>1</dim>
					<dim>1</dim>
					<dim>2048</dim>
				</port>
			</output>
		</layer>
		<layer id="18" name="self.model.embed_tokens.weight" type="Const" version="opset1">
			<data element_type="u8" shape="32000, 2048" offset="8220" size="65536000" />
			<output>
				<port id="0" precision="U8">
					<dim>32000</dim>
					<dim>2048</dim>
				</port>
			</output>
		</layer>
		<layer id="19" name="Convert_61524" type="Convert" version="opset1">
			<data destination_type="f16" />
			<input>
				<port id="0" precision="U8">
					<dim>32000</dim>
					<dim>2048</dim>
				</port>
			</input>
			<output>
				<port id="1" precision="FP16">
					<dim>32000</dim>
					<dim>2048</dim>
				</port>
			</output>
		</layer>
		<layer id="20" name="self.model.embed_tokens.weight/zero_point" type="Const" version="opset1">
			<data element_type="u8" shape="32000, 1" offset="65544220" size="32000" />
			<output>
				<port id="0" precision="U8">
					<dim>32000</dim>
					<dim>1</dim>
				</port>
			</output>
		</layer>
		<layer id="21" name="Convert_61527" type="Convert" version="opset1">
			<data destination_type="f16" />
			<input>
				<port id="0" precision="U8">
					<dim>32000</dim>
					<dim>1</dim>
				</port>
			</input>
			<output>
				<port id="1" precision="FP16">
					<dim>32000</dim>
					<dim>1</dim>
				</port>
			</output>
		</layer>
		<layer id="22" name="self.model.embed_tokens.weight/zero_point/subtract" type="Subtract" version="opset1">
			<data auto_broadcast="numpy" />
			<input>
				<port id="0" precision="FP16">
					<dim>32000</dim>
					<dim>2048</dim>
				</port>
				<port id="1" precision="FP16">
					<dim>32000</dim>
					<dim>1</dim>
				</port>
			</input>
			<output>
				<port id="2" precision="FP16">
					<dim>32000</dim>
					<dim>2048</dim>
				</port>
			</output>
		</layer>
		<layer id="23" name="self.model.embed_tokens.weight/scale" type="Const" version="opset1">
			<data element_type="f16" shape="32000, 1" offset="65576220" size="64000" />
			<output>
				<port id="0" precision="FP16">
					<dim>32000</dim>
					<dim>1</dim>
				</port>
			</output>
		</layer>
		<layer id="24" name="self.model.embed_tokens.weight/fq_weights_0" type="Multiply" version="opset1">
			<data auto_broadcast="numpy" />
			<input>
				<port id="0" precision="FP16">
					<dim>32000</dim>
					<dim>2048</dim>
				</port>
				<port id="1" precision="FP16">
					<dim>32000</dim>
					<dim>1</dim>
				</port>
			</input>
			<output>
				<port id="2" precision="FP16">
					<dim>32000</dim>
					<dim>2048</dim>
				</port>
			</output>
		</layer>
		<layer id="25" name="__module.model.embed_tokens/ov_ext::embedding/Convert" type="Convert" version="opset1">
			<data destination_type="f32" />
			<rt_info>
				<attribute name="decompression" version="0" />
			</rt_info>
			<input>
				<port id="0" precision="FP16">
					<dim>32000</dim>
					<dim>2048</dim>
				</port>
			</input>
			<output>
				<port id="1" precision="FP32">
					<dim>32000</dim>
					<dim>2048</dim>
				</port>
			</output>
		</layer>
		<layer id="26" name="__module.model.embed_tokens/ov_ext::embedding/Convert_1" type="Convert" version="opset1">
			<data destination_type="i32" />
			<input>
				<port id="0" precision="I64">
					<dim>-1</dim>
					<dim>-1</dim>
				</port>
			</input>
			<output>
				<port id="1" precision="I32">
					<dim>-1</dim>
					<dim>-1</dim>
				</port>
			</output>
		</layer>
		<layer id="27" name="__module.model.embed_tokens/ov_ext::embedding/Constant" type="Const" version="opset1">
			<data element_type="i32" shape="" offset="0" size="4" />
			<output>
				<port id="0" precision="I32" />
			</output>
		</layer>
		<layer id="28" name="__module.model.embed_tokens/ov_ext::embedding/Gather" type="Gather" version="opset8">
			<data batch_dims="0" />
			<input>
				<port id="0" precision="FP32">
					<dim>32000</dim>
					<dim>2048</dim>
				</port>
				<port id="1" precision="I32">
					<dim>-1</dim>
					<dim>-1</dim>
				</port>
				<port id="2" precision="I32" />
			</input>
			<output>
				<port id="3" precision="FP32" names="231,314,325,hidden_states.1,inputs_embeds">
					<dim>-1</dim>
					<dim>-1</dim>
					<dim>2048</dim>
				</port>
			</output>
		</layer>
		<layer id="29" name="Constant_41421" type="Const" version="opset1">
			<data element_type="f32" shape="1, 1, 2048" offset="65640220" size="8192" />
			<output>
				<port id="0" precision="FP32">
					<dim>1</dim>
					<dim>1</dim>
					<dim>2048</dim>
				</port>
			</output>
		</layer>
		<layer id="30" name="Constant_41420" type="Const" version="opset1">
			<data element_type="f32" shape="1, 1, 1" offset="65648412" size="4" />
			<output>
				<port id="0" precision="FP32">
					<dim>1</dim>
					<dim>1</dim>
					<dim>1</dim>
				</port>
			</output>
		</layer>
		<layer id="31" name="Constant_41418" type="Const" version="opset1">
			<data element_type="f32" shape="1, 1, 1" offset="65648416" size="4" />
			<output>
				<port id="0" precision="FP32">
					<dim>1</dim>
					<dim>1</dim>
					<dim>1</dim>
				</port>
			</output>
		</layer>
		<layer id="32" name="__module.model.layers.0.input_layernorm/aten::pow/Power" type="Power" version="opset1">
			<data auto_broadcast="numpy" />
			<input>
				<port id="0" precision="FP32">
					<dim>-1</dim>
					<dim>-1</dim>
					<dim>2048</dim>
				</port>
				<port id="1" precision="FP32">
					<dim>1</dim>
					<dim>1</dim>
					<dim>1</dim>
				</port>
			</input>
			<output>
				<port id="2" precision="FP32" names="315">
					<dim>-1</dim>
					<dim>-1</dim>
					<dim>2048</dim>
				</port>
			</output>
		</layer>
		<layer id="33" name="Constant_641" type="Const" version="opset1">
			<data element_type="i64" shape="1" offset="65648420" size="8" />
			<output>
				<port id="0" precision="I64" names="316">
					<dim>1</dim>
				</port>
			</output>
		</layer>
		<layer id="34" name="__module.model.layers.0.input_layernorm/aten::mean/ReduceMean" type="ReduceMean" version="opset1">
			<data keep_dims="true" />
			<input>
				<port id="0" precision="FP32">
					<dim>-1</dim>
					<dim>-1</dim>
					<dim>2048</dim>
				</port>
				<port id="1" precision="I64">
					<dim>1</dim>
				</port>
			</input>
			<output>
				<port id="2" precision="FP32" names="317,variance.1">
					<dim>-1</dim>
					<dim>-1</dim>
					<dim>1</dim>
				</port>
			</output>
		</layer>
		<layer id="35" name="Constant_41419" type="Const" version="opset1">
			<data element_type="f32" shape="1, 1, 1" offset="65648428" size="4" />
			<output>
				<port id="0" precision="FP32">
					<dim>1</dim>
					<dim>1</dim>
					<dim>1</dim>
				</port>
			</output>
		</layer>
		<layer id="36" name="__module.model.layers.0.input_layernorm/aten::add/Add" type="Add" version="opset1">
			<data auto_broadcast="numpy" />
			<input>
				<port id="0" precision="FP32">
					<dim>-1</dim>
					<dim>-1</dim>
					<dim>1</dim>
				</port>
				<port id="1" precision="FP32">
					<dim>1</dim>
					<dim>1</dim>
					<dim>1</dim>
				</port>
			</input>
			<output>
				<port id="2" precision="FP32" names="318">
					<dim>-1</dim>
					<dim>-1</dim>
					<dim>1</dim>
				</port>
			</output>
		</layer>
		<layer id="37" name="__module.model.layers.0.input_layernorm/aten::rsqrt/Sqrt" type="Sqrt" version="opset1">
			<input>
				<port id="0" precision="FP32">
					<dim>-1</dim>
					<dim>-1</dim>
					<dim>1</dim>
				</port>
			</input>
			<output>
				<port id="1" precision="FP32">
					<dim>-1</dim>
					<dim>-1</dim>
					<dim>1</dim>
				</port>
			</output>
		</layer>
		<layer id="38" name="__module.model.layers.0.input_layernorm/aten::rsqrt/Divide" type="Divide" version="opset1">
			<data auto_broadcast="numpy" m_pythondiv="true" />
			<input>
				<port id="0" precision="FP32">
					<dim>1</dim>
					<dim>1</dim>
					<dim>1</dim>
				</port>
				<port id="1" precision="FP32">
					<dim>-1</dim>
					<dim>-1</dim>
					<dim>1</dim>
				</port>
			</input>
			<output>
				<port id="2" precision="FP32" names="319">
					<dim>-1</dim>
					<dim>-1</dim>
					<dim>1</dim>
				</port>
			</output>
		</layer>
		<layer id="39" name="__module.model.layers.0.input_layernorm/aten::mul/Multiply" type="Multiply" version="opset1">
			<data auto_broadcast="numpy" />
			<input>
				<port id="0" precision="FP32">
					<dim>-1</dim>
					<dim>-1</dim>
					<dim>2048</dim>
				</port>
				<port id="1" precision="FP32">
					<dim>-1</dim>
					<dim>-1</dim>
					<dim>1</dim>
				</port>
			</input>
			<output>
				<port id="2" precision="FP32" names="320,321,hidden_states.3,hidden_states.5">
					<dim>-1</dim>
					<dim>-1</dim>
					<dim>2048</dim>
				</port>
			</output>
		</layer>
		<layer id="40" name="__module.model.layers.0.input_layernorm/aten::mul/Multiply_1" type="Multiply" version="opset1">
			<data auto_broadcast="numpy" />
			<input>
				<port id="0" precision="FP32">
					<dim>1</dim>
					<dim>1</dim>
					<dim>2048</dim>
				</port>
				<port id="1" precision="FP32">
					<dim>-1</dim>
					<dim>-1</dim>
					<dim>2048</dim>
				</port>
			</input>
			<output>
				<port id="2" precision="FP32" names="322,324,hidden_states.7">
					<dim>-1</dim>
					<dim>-1</dim>
					<dim>2048</dim>
				</port>
			</output>
		</layer>
		<layer id="41" name="self.model.layers.0.self_attn.q_proj.weight" type="Const" version="opset1">
			<data element_type="u4" shape="2048, 16, 128" offset="65648432" size="2097152" />
			<output>
				<port id="0" precision="U4">
					<dim>2048</dim>
					<dim>16</dim>
					<dim>128</dim>
				</port>
			</output>
		</layer>
		<layer id="42" name="Convert_62203" type="Convert" version="opset1">
			<data destination_type="f16" />
			<input>
				<port id="0" precision="U4">
					<dim>2048</dim>
					<dim>16</dim>
					<dim>128</dim>
				</port>
			</input>
			<output>
				<port id="1" precision="FP16">
					<dim>2048</dim>
					<dim>16</dim>
					<dim>128</dim>
				</port>
			</output>
		</layer>
		<layer id="43" name="self.model.layers.0.self_attn.q_proj.weight/zero_point" type="Const" version="opset1">
			<data element_type="u4" shape="2048, 16, 1" offset="67745584" size="16384" />
			<output>
				<port id="0" precision="U4">
					<dim>2048</dim>
					<dim>16</dim>
					<dim>1</dim>
				</port>
			</output>
		</layer>
		<layer id="44" name="Convert_62205" type="Convert" version="opset1">
			<data destination_type="f16" />
			<input>
				<port id="0" precision="U4">
					<dim>2048</dim>
					<dim>16</dim>
					<dim>1</dim>
				</port>
			</input>
			<output>
				<port id="1" precision="FP16">
					<dim>2048</dim>
					<dim>16</dim>
					<dim>1</dim>
				</port>
			</output>
		</layer>
		<layer id="45" name="self.model.layers.0.self_attn.q_proj.weight/zero_point/subtract" type="Subtract" version="opset1">
			<data auto_broadcast="numpy" />
			<input>
				<port id="0" precision="FP16">
					<dim>2048</dim>
					<dim>16</dim>
					<dim>128</dim>
				</port>
				<port id="1" precision="FP16">
					<dim>2048</dim>
					<dim>16</dim>
					<dim>1</dim>
				</port>
			</input>
			<output>
				<port id="2" precision="FP16">
					<dim>2048</dim>
					<dim>16</dim>
					<dim>128</dim>
				</port>
			</output>
		</layer>
		<layer id="46" name="self.model.layers.0.self_attn.q_proj.weight/scale" type="Const" version="opset1">
			<data element_type="f16" shape="2048, 16, 1" offset="67761968" size="65536" />
			<output>
				<port id="0" precision="FP16">
					<dim>2048</dim>
					<dim>16</dim>
					<dim>1</dim>
				</port>
			</output>
		</layer>
		<layer id="47" name="self.model.layers.0.self_attn.q_proj.weight/fq_weights_1" type="Multiply" version="opset1">
			<data auto_broadcast="numpy" />
			<input>
				<port id="0" precision="FP16">
					<dim>2048</dim>
					<dim>16</dim>
					<dim>128</dim>
				</port>
				<port id="1" precision="FP16">
					<dim>2048</dim>
					<dim>16</dim>
					<dim>1</dim>
				</port>
			</input>
			<output>
				<port id="2" precision="FP16">
					<dim>2048</dim>
					<dim>16</dim>
					<dim>128</dim>
				</port>
			</output>
		</layer>
		<layer id="48" name="Constant_62210" type="Const" version="opset1">
			<data element_type="i32" shape="2" offset="67827504" size="8" />
			<output>
				<port id="0" precision="I32">
					<dim>2</dim>
				</port>
			</output>
		</layer>
		<layer id="49" name="Reshape_62211" type="Reshape" version="opset1">
			<data special_zero="false" />
			<input>
				<port id="0" precision="FP16">
					<dim>2048</dim>
					<dim>16</dim>
					<dim>128</dim>
				</port>
				<port id="1" precision="I32">
					<dim>2</dim>
				</port>
			</input>
			<output>
				<port id="2" precision="FP16">
					<dim>2048</dim>
					<dim>2048</dim>
				</port>
			</output>
		</layer>
		<layer id="50" name="__module.model.layers.0.self_attn.q_proj/ov_ext::linear/ConvertLike" type="Convert" version="opset1">
			<data destination_type="f32" />
			<rt_info>
				<attribute name="decompression" version="0" />
			</rt_info>
			<input>
				<port id="0" precision="FP16">
					<dim>2048</dim>
					<dim>2048</dim>
				</port>
			</input>
			<output>
				<port id="1" precision="FP32">
					<dim>2048</dim>
					<dim>2048</dim>
				</port>
			</output>
		</layer>
		<layer id="51" name="__module.model.layers.0.self_attn.q_proj/ov_ext::linear/MatMul" type="MatMul" version="opset1">
			<data transpose_a="false" transpose_b="true" />
			<input>
				<port id="0" precision="FP32">
					<dim>-1</dim>
					<dim>-1</dim>
					<dim>2048</dim>
				</port>
				<port id="1" precision="FP32">
					<dim>2048</dim>
					<dim>2048</dim>
				</port>
			</input>
			<output>
				<port id="2" precision="FP32" names="333,query_states.1">
					<dim>-1</dim>
					<dim>-1</dim>
					<dim>2048</dim>
				</port>
			</output>
		</layer>
		<layer id="52" name="Constant_47970" type="Const" version="opset1">
			<data element_type="i64" shape="4" offset="67827512" size="32" />
			<output>
				<port id="0" precision="I64">
					<dim>4</dim>
				</port>
			</output>
		</layer>
		<layer id="53" name="__module.model.layers.0.self_attn/aten::view/Reshape" type="Reshape" version="opset1">
			<data special_zero="true" />
			<input>
				<port id="0" precision="FP32">
					<dim>-1</dim>
					<dim>-1</dim>
					<dim>2048</dim>
				</port>
				<port id="1" precision="I64">
					<dim>4</dim>
				</port>
			</input>
			<output>
				<port id="2" precision="FP32" names="339">
					<dim>-1</dim>
					<dim>-1</dim>
					<dim>32</dim>
					<dim>64</dim>
				</port>
			</output>
		</layer>
		<layer id="54" name="__module.model.layers.0.self_attn/aten::transpose/Constant" type="Const" version="opset1">
			<data element_type="i32" shape="4" offset="67827544" size="16" />
			<output>
				<port id="0" precision="I32">
					<dim>4</dim>
				</port>
			</output>
		</layer>
		<layer id="55" name="__module.model.layers.0.self_attn/aten::transpose/Transpose" type="Transpose" version="opset1">
			<input>
				<port id="0" precision="FP32">
					<dim>-1</dim>
					<dim>-1</dim>
					<dim>32</dim>
					<dim>64</dim>
				</port>
				<port id="1" precision="I32">
					<dim>4</dim>
				</port>
			</input>
			<output>
				<port id="2" precision="FP32" names="340,q.1">
					<dim>-1</dim>
					<dim>32</dim>
					<dim>-1</dim>
					<dim>64</dim>
				</port>
			</output>
		</layer>
		<layer id="56" name="__module.model.rotary_emb/aten::unsqueeze/Unsqueeze_1" type="Const" version="opset1">
			<data element_type="f32" shape="1, 32, 1" offset="67827560" size="128" />
			<output>
				<port id="0" precision="FP32" names="285,286">
					<dim>1</dim>
					<dim>32</dim>
					<dim>1</dim>
				</port>
			</output>
		</layer>
		<layer id="57" name="ShapeOf_42838" type="ShapeOf" version="opset3">
			<data output_type="i64" />
			<input>
				<port id="0" precision="FP32">
					<dim>-1</dim>
					<dim>-1</dim>
					<dim>2048</dim>
				</port>
			</input>
			<output>
				<port id="1" precision="I64">
					<dim>3</dim>
				</port>
			</output>
		</layer>
		<layer id="58" name="Constant_42839" type="Const" version="opset1">
			<data element_type="i64" shape="1" offset="12" size="8" />
			<output>
				<port id="0" precision="I64">
					<dim>1</dim>
				</port>
			</output>
		</layer>
		<layer id="59" name="Constant_42840" type="Const" version="opset1">
			<data element_type="i64" shape="" offset="12" size="8" />
			<output>
				<port id="0" precision="I64" />
			</output>
		</layer>
		<layer id="60" name="Gather_42841" type="Gather" version="opset8">
			<data batch_dims="0" />
			<input>
				<port id="0" precision="I64">
					<dim>3</dim>
				</port>
				<port id="1" precision="I64">
					<dim>1</dim>
				</port>
				<port id="2" precision="I64" />
			</input>
			<output>
				<port id="3" precision="I64" names="1004,1020,1158,1174,1312,1328,1466,1482,1620,1636,1774,1790,1928,1944,2082,2098,2236,2252,2390,2406,2544,2560,257,2698,2714,2852,2868,287,3006,3022,3160,3176,3314,3330,3468,3484,3622,3638,388,404,542,558,696,712,850,866">
					<dim>1</dim>
				</port>
			</output>
		</layer>
		<layer id="61" name="Constant_36449" type="Const" version="opset1">
			<data element_type="i64" shape="1" offset="67827688" size="8" />
			<output>
				<port id="0" precision="I64">
					<dim>1</dim>
				</port>
			</output>
		</layer>
		<layer id="62" name="Constant_36451" type="Const" version="opset1">
			<data element_type="i64" shape="1" offset="67827688" size="8" />
			<output>
				<port id="0" precision="I64">
					<dim>1</dim>
				</port>
			</output>
		</layer>
		<layer id="63" name="__module.model.rotary_emb/prim::ListConstruct" type="Concat" version="opset1">
			<data axis="0" />
			<input>
				<port id="0" precision="I64">
					<dim>1</dim>
				</port>
				<port id="1" precision="I64">
					<dim>1</dim>
				</port>
				<port id="2" precision="I64">
					<dim>1</dim>
				</port>
			</input>
			<output>
				<port id="3" precision="I64">
					<dim>3</dim>
				</port>
			</output>
		</layer>
		<layer id="64" name="__module.model.rotary_emb/aten::expand/Broadcast" type="Broadcast" version="opset3">
			<data mode="bidirectional" />
			<input>
				<port id="0" precision="FP32">
					<dim>1</dim>
					<dim>32</dim>
					<dim>1</dim>
				</port>
				<port id="1" precision="I64">
					<dim>3</dim>
				</port>
			</input>
			<output>
				<port id="2" precision="FP32" names="289,294,inv_freq_expanded,inv_freq_expanded.1">
					<dim>-1</dim>
					<dim>32</dim>
					<dim>1</dim>
				</port>
			</output>
		</layer>
		<layer id="65" name="180" type="Const" version="opset1">
			<data element_type="i64" shape="" offset="67827688" size="8" />
			<output>
				<port id="0" precision="I64" names="180" />
			</output>
		</layer>
		<layer id="66" name="__module.model.rotary_emb/aten::unsqueeze/Unsqueeze_2" type="Unsqueeze" version="opset1">
			<input>
				<port id="0" precision="I64">
					<dim>-1</dim>
					<dim>-1</dim>
				</port>
				<port id="1" precision="I64" />
			</input>
			<output>
				<port id="2" precision="I64" names="291,292">
					<dim>-1</dim>
					<dim>1</dim>
					<dim>-1</dim>
				</port>
			</output>
		</layer>
		<layer id="67" name="__module.model.rotary_emb/aten::to/Convert_2" type="Convert" version="opset1">
			<data destination_type="f32" />
			<input>
				<port id="0" precision="I64">
					<dim>-1</dim>
					<dim>1</dim>
					<dim>-1</dim>
				</port>
			</input>
			<output>
				<port id="1" precision="FP32" names="293,295,position_ids_expanded,position_ids_expanded.1">
					<dim>-1</dim>
					<dim>1</dim>
					<dim>-1</dim>
				</port>
			</output>
		</layer>
		<layer id="68" name="__module.model.rotary_emb/aten::matmul/MatMul" type="MatMul" version="opset1">
			<data transpose_a="false" transpose_b="false" />
			<input>
				<port id="0" precision="FP32">
					<dim>-1</dim>
					<dim>32</dim>
					<dim>1</dim>
				</port>
				<port id="1" precision="FP32">
					<dim>-1</dim>
					<dim>1</dim>
					<dim>-1</dim>
				</port>
			</input>
			<output>
				<port id="2" precision="FP32" names="296">
					<dim>-1</dim>
					<dim>32</dim>
					<dim>-1</dim>
				</port>
			</output>
		</layer>
		<layer id="69" name="__module.model.rotary_emb/aten::transpose/Constant" type="Const" version="opset1">
			<data element_type="i32" shape="3" offset="67827696" size="12" />
			<output>
				<port id="0" precision="I32">
					<dim>3</dim>
				</port>
			</output>
		</layer>
		<layer id="70" name="__module.model.rotary_emb/aten::transpose/Transpose" type="Transpose" version="opset1">
			<input>
				<port id="0" precision="FP32">
					<dim>-1</dim>
					<dim>32</dim>
					<dim>-1</dim>
				</port>
				<port id="1" precision="I32">
					<dim>3</dim>
				</port>
			</input>
			<output>
				<port id="2" precision="FP32" names="297">
					<dim>-1</dim>
					<dim>-1</dim>
					<dim>32</dim>
				</port>
			</output>
		</layer>
		<layer id="71" name="__module.model.rotary_emb/aten::cat/Concat" type="Concat" version="opset1">
			<data axis="-1" />
			<input>
				<port id="0" precision="FP32">
					<dim>-1</dim>
					<dim>-1</dim>
					<dim>32</dim>
				</port>
				<port id="1" precision="FP32">
					<dim>-1</dim>
					<dim>-1</dim>
					<dim>32</dim>
				</port>
			</input>
			<output>
				<port id="2" precision="FP32" names="299,emb">
					<dim>-1</dim>
					<dim>-1</dim>
					<dim>64</dim>
				</port>
			</output>
		</layer>
		<layer id="72" name="__module.model.rotary_emb/aten::cos/Cos" type="Cos" version="opset1">
			<input>
				<port id="0" precision="FP32">
					<dim>-1</dim>
					<dim>-1</dim>
					<dim>64</dim>
				</port>
			</input>
			<output>
				<port id="1" precision="FP32" names="300,302,304,307,cos.1,cos.3,cos.5">
					<dim>-1</dim>
					<dim>-1</dim>
					<dim>64</dim>
				</port>
			</output>
		</layer>
		<layer id="73" name="__module.model.layers.0.self_attn/aten::unsqueeze/Unsqueeze" type="Unsqueeze" version="opset1">
			<input>
				<port id="0" precision="FP32">
					<dim>-1</dim>
					<dim>-1</dim>
					<dim>64</dim>
				</port>
				<port id="1" precision="I64" />
			</input>
			<output>
				<port id="2" precision="FP32" names="1120,1274,1428,1582,1736,1890,2044,2198,2352,2506,2660,2814,2968,3122,3276,3430,347,3584,504,658,812,966,cos,cos.11,cos.13,cos.15,cos.17,cos.19,cos.21,cos.23,cos.25,cos.27,cos.29,cos.31,cos.33,cos.35,cos.37,cos.39,cos.41,cos.43,cos.45,cos.47,cos.7,cos.9">
					<dim>-1</dim>
					<dim>1</dim>
					<dim>-1</dim>
					<dim>64</dim>
				</port>
			</output>
		</layer>
		<layer id="74" name="__module.model.layers.0.self_attn/aten::mul/Multiply" type="Multiply" version="opset1">
			<data auto_broadcast="numpy" />
			<input>
				<port id="0" precision="FP32">
					<dim>-1</dim>
					<dim>32</dim>
					<dim>-1</dim>
					<dim>64</dim>
				</port>
				<port id="1" precision="FP32">
					<dim>-1</dim>
					<dim>1</dim>
					<dim>-1</dim>
					<dim>64</dim>
				</port>
			</input>
			<output>
				<port id="2" precision="FP32" names="349">
					<dim>-1</dim>
					<dim>32</dim>
					<dim>-1</dim>
					<dim>64</dim>
				</port>
			</output>
		</layer>
		<layer id="75" name="Constant_1038" type="Const" version="opset1">
			<data element_type="i64" shape="1" offset="67827708" size="8" />
			<output>
				<port id="0" precision="I64">
					<dim>1</dim>
				</port>
			</output>
		</layer>
		<layer id="76" name="Constant_1040" type="Const" version="opset1">
			<data element_type="i64" shape="1" offset="67827716" size="8" />
			<output>
				<port id="0" precision="I64">
					<dim>1</dim>
				</port>
			</output>
		</layer>
		<layer id="77" name="Constant_1042" type="Const" version="opset1">
			<data element_type="i64" shape="1" offset="67827688" size="8" />
			<output>
				<port id="0" precision="I64">
					<dim>1</dim>
				</port>
			</output>
		</layer>
		<layer id="78" name="__module.model.layers.0.self_attn/aten::slice/Reshape" type="Const" version="opset1">
			<data element_type="i64" shape="1" offset="67827724" size="8" />
			<output>
				<port id="0" precision="I64">
					<dim>1</dim>
				</port>
			</output>
		</layer>
		<layer id="79" name="__module.model.layers.0.self_attn/aten::slice/Slice" type="Slice" version="opset8">
			<input>
				<port id="0" precision="FP32">
					<dim>-1</dim>
					<dim>32</dim>
					<dim>-1</dim>
					<dim>64</dim>
				</port>
				<port id="1" precision="I64">
					<dim>1</dim>
				</port>
				<port id="2" precision="I64">
					<dim>1</dim>
				</port>
				<port id="3" precision="I64">
					<dim>1</dim>
				</port>
				<port id="4" precision="I64">
					<dim>1</dim>
				</port>
			</input>
			<output>
				<port id="5" precision="FP32" names="359,x2.1">
					<dim>-1</dim>
					<dim>32</dim>
					<dim>-1</dim>
					<dim>32</dim>
				</port>
			</output>
		</layer>
		<layer id="80" name="Constant_41422" type="Const" version="opset1">
			<data element_type="f32" shape="1, 1, 1, 1" offset="67827732" size="4" />
			<output>
				<port id="0" precision="FP32">
					<dim>1</dim>
					<dim>1</dim>
					<dim>1</dim>
					<dim>1</dim>
				</port>
			</output>
		</layer>
		<layer id="81" name="__module.model.layers.0.self_attn/aten::neg/Multiply" type="Multiply" version="opset1">
			<data auto_broadcast="numpy" />
			<input>
				<port id="0" precision="FP32">
					<dim>-1</dim>
					<dim>32</dim>
					<dim>-1</dim>
					<dim>32</dim>
				</port>
				<port id="1" precision="FP32">
					<dim>1</dim>
					<dim>1</dim>
					<dim>1</dim>
					<dim>1</dim>
				</port>
			</input>
			<output>
				<port id="2" precision="FP32" names="360">
					<dim>-1</dim>
					<dim>32</dim>
					<dim>-1</dim>
					<dim>32</dim>
				</port>
			</output>
		</layer>
		<layer id="82" name="Constant_935" type="Const" version="opset1">
			<data element_type="i64" shape="1" offset="12" size="8" />
			<output>
				<port id="0" precision="I64">
					<dim>1</dim>
				</port>
			</output>
		</layer>
		<layer id="83" name="Constant_979" type="Const" version="opset1">
			<data element_type="i64" shape="1" offset="67827708" size="8" />
			<output>
				<port id="0" precision="I64">
					<dim>1</dim>
				</port>
			</output>
		</layer>
		<layer id="84" name="Constant_981" type="Const" version="opset1">
			<data element_type="i64" shape="1" offset="67827688" size="8" />
			<output>
				<port id="0" precision="I64">
					<dim>1</dim>
				</port>
			</output>
		</layer>
		<layer id="85" name="__module.model.layers.0.self_attn/aten::slice/Slice_1" type="Slice" version="opset8">
			<input>
				<port id="0" precision="FP32">
					<dim>-1</dim>
					<dim>32</dim>
					<dim>-1</dim>
					<dim>64</dim>
				</port>
				<port id="1" precision="I64">
					<dim>1</dim>
				</port>
				<port id="2" precision="I64">
					<dim>1</dim>
				</port>
				<port id="3" precision="I64">
					<dim>1</dim>
				</port>
				<port id="4" precision="I64">
					<dim>1</dim>
				</port>
			</input>
			<output>
				<port id="5" precision="FP32" names="354">
					<dim>-1</dim>
					<dim>32</dim>
					<dim>-1</dim>
					<dim>32</dim>
				</port>
			</output>
		</layer>
		<layer id="86" name="__module.model.layers.0.self_attn/aten::cat/Concat" type="Concat" version="opset1">
			<data axis="-1" />
			<input>
				<port id="0" precision="FP32">
					<dim>-1</dim>
					<dim>32</dim>
					<dim>-1</dim>
					<dim>32</dim>
				</port>
				<port id="1" precision="FP32">
					<dim>-1</dim>
					<dim>32</dim>
					<dim>-1</dim>
					<dim>32</dim>
				</port>
			</input>
			<output>
				<port id="2" precision="FP32" names="362">
					<dim>-1</dim>
					<dim>32</dim>
					<dim>-1</dim>
					<dim>64</dim>
				</port>
			</output>
		</layer>
		<layer id="87" name="__module.model.rotary_emb/aten::sin/Sin" type="Sin" version="opset1">
			<input>
				<port id="0" precision="FP32">
					<dim>-1</dim>
					<dim>-1</dim>
					<dim>64</dim>
				</port>
			</input>
			<output>
				<port id="1" precision="FP32" names="301,303,305,308,sin.1,sin.3,sin.5">
					<dim>-1</dim>
					<dim>-1</dim>
					<dim>64</dim>
				</port>
			</output>
		</layer>
		<layer id="88" name="__module.model.layers.0.self_attn/aten::unsqueeze/Unsqueeze_1" type="Unsqueeze" version="opset1">
			<input>
				<port id="0" precision="FP32">
					<dim>-1</dim>
					<dim>-1</dim>
					<dim>64</dim>
				</port>
				<port id="1" precision="I64" />
			</input>
			<output>
				<port id="2" precision="FP32" names="1121,1275,1429,1583,1737,1891,2045,2199,2353,2507,2661,2815,2969,3123,3277,3431,348,3585,505,659,813,967,sin,sin.11,sin.13,sin.15,sin.17,sin.19,sin.21,sin.23,sin.25,sin.27,sin.29,sin.31,sin.33,sin.35,sin.37,sin.39,sin.41,sin.43,sin.45,sin.47,sin.7,sin.9">
					<dim>-1</dim>
					<dim>1</dim>
					<dim>-1</dim>
					<dim>64</dim>
				</port>
			</output>
		</layer>
		<layer id="89" name="__module.model.layers.0.self_attn/aten::mul/Multiply_1" type="Multiply" version="opset1">
			<data auto_broadcast="numpy" />
			<input>
				<port id="0" precision="FP32">
					<dim>-1</dim>
					<dim>32</dim>
					<dim>-1</dim>
					<dim>64</dim>
				</port>
				<port id="1" precision="FP32">
					<dim>-1</dim>
					<dim>1</dim>
					<dim>-1</dim>
					<dim>64</dim>
				</port>
			</input>
			<output>
				<port id="2" precision="FP32" names="363">
					<dim>-1</dim>
					<dim>32</dim>
					<dim>-1</dim>
					<dim>64</dim>
				</port>
			</output>
		</layer>
		<layer id="90" name="__module.model.layers.0.self_attn/aten::add/Add" type="Add" version="opset1">
			<data auto_broadcast="numpy" />
			<input>
				<port id="0" precision="FP32">
					<dim>-1</dim>
					<dim>32</dim>
					<dim>-1</dim>
					<dim>64</dim>
				</port>
				<port id="1" precision="FP32">
					<dim>-1</dim>
					<dim>32</dim>
					<dim>-1</dim>
					<dim>64</dim>
				</port>
			</input>
			<output>
				<port id="2" precision="FP32" names="364">
					<dim>-1</dim>
					<dim>32</dim>
					<dim>-1</dim>
					<dim>64</dim>
				</port>
			</output>
		</layer>
		<layer id="91" name="Constant_50315" type="Const" version="opset1">
			<data element_type="f32" shape="" offset="0" size="4" />
			<output>
				<port id="0" precision="FP32" />
			</output>
		</layer>
		<layer id="92" name="Constant_50308" type="Const" version="opset1">
			<data element_type="i64" shape="1" offset="4" size="8" />
			<output>
				<port id="0" precision="I64">
					<dim>1</dim>
				</port>
			</output>
		</layer>
		<layer id="93" name="Constant_50310" type="Const" version="opset1">
			<data element_type="i64" shape="1" offset="12" size="8" />
			<output>
				<port id="0" precision="I64">
					<dim>1</dim>
				</port>
			</output>
		</layer>
		<layer id="94" name="Constant_50312" type="Const" version="opset1">
			<data element_type="i64" shape="1" offset="20" size="8" />
			<output>
				<port id="0" precision="I64">
					<dim>1</dim>
				</port>
			</output>
		</layer>
		<layer id="95" name="Concat_50313" type="Concat" version="opset1">
			<data axis="0" />
			<input>
				<port id="0" precision="I64">
					<dim>1</dim>
				</port>
				<port id="1" precision="I64">
					<dim>1</dim>
				</port>
				<port id="2" precision="I64">
					<dim>1</dim>
				</port>
				<port id="3" precision="I64">
					<dim>1</dim>
				</port>
			</input>
			<output>
				<port id="4" precision="I64">
					<dim>4</dim>
				</port>
			</output>
		</layer>
		<layer id="96" name="Broadcast_50316" type="Broadcast" version="opset3">
			<data mode="numpy" />
			<input>
				<port id="0" precision="FP32" />
				<port id="1" precision="I64">
					<dim>4</dim>
				</port>
			</input>
			<output>
				<port id="2" precision="FP32">
					<dim>-1</dim>
					<dim>4</dim>
					<dim>0</dim>
					<dim>64</dim>
				</port>
			</output>
		</layer>
		<layer id="97" name="ReadValue_49827" type="ReadValue" version="opset6">
			<data variable_id="past_key_values.0.keypresent.0.key" variable_type="f32" variable_shape="?,4,?,64" />
			<input>
				<port id="0" precision="FP32">
					<dim>-1</dim>
					<dim>4</dim>
					<dim>0</dim>
					<dim>64</dim>
				</port>
			</input>
			<output>
				<port id="1" precision="FP32" names="past_key_values.0.key">
					<dim>-1</dim>
					<dim>4</dim>
					<dim>-1</dim>
					<dim>64</dim>
				</port>
			</output>
		</layer>
		<layer id="98" name="Constant_49322" type="Const" version="opset1">
			<data element_type="i32" shape="" offset="0" size="4" />
			<output>
				<port id="0" precision="I32" />
			</output>
		</layer>
		<layer id="99" name="Gather_49323" type="Gather" version="opset8">
			<data batch_dims="0" />
			<input>
				<port id="0" precision="FP32">
					<dim>-1</dim>
					<dim>4</dim>
					<dim>-1</dim>
					<dim>64</dim>
				</port>
				<port id="1" precision="I32">
					<dim>-1</dim>
				</port>
				<port id="2" precision="I32" />
			</input>
			<output>
				<port id="3" precision="FP32">
					<dim>-1</dim>
					<dim>4</dim>
					<dim>-1</dim>
					<dim>64</dim>
				</port>
			</output>
		</layer>
		<layer id="100" name="self.model.layers.0.self_attn.k_proj.weight" type="Const" version="opset1">
			<data element_type="u4" shape="256, 16, 128" offset="67827736" size="262144" />
			<output>
				<port id="0" precision="U4">
					<dim>256</dim>
					<dim>16</dim>
					<dim>128</dim>
				</port>
			</output>
		</layer>
		<layer id="101" name="Convert_62653" type="Convert" version="opset1">
			<data destination_type="f16" />
			<input>
				<port id="0" precision="U4">
					<dim>256</dim>
					<dim>16</dim>
					<dim>128</dim>
				</port>
			</input>
			<output>
				<port id="1" precision="FP16">
					<dim>256</dim>
					<dim>16</dim>
					<dim>128</dim>
				</port>
			</output>
		</layer>
		<layer id="102" name="self.model.layers.0.self_attn.k_proj.weight/zero_point" type="Const" version="opset1">
			<data element_type="u4" shape="256, 16, 1" offset="68089880" size="2048" />
			<output>
				<port id="0" precision="U4">
					<dim>256</dim>
					<dim>16</dim>
					<dim>1</dim>
				</port>
			</output>
		</layer>
		<layer id="103" name="Convert_62655" type="Convert" version="opset1">
			<data destination_type="f16" />
			<input>
				<port id="0" precision="U4">
					<dim>256</dim>
					<dim>16</dim>
					<dim>1</dim>
				</port>
			</input>
			<output>
				<port id="1" precision="FP16">
					<dim>256</dim>
					<dim>16</dim>
					<dim>1</dim>
				</port>
			</output>
		</layer>
		<layer id="104" name="self.model.layers.0.self_attn.k_proj.weight/zero_point/subtract" type="Subtract" version="opset1">
			<data auto_broadcast="numpy" />
			<input>
				<port id="0" precision="FP16">
					<dim>256</dim>
					<dim>16</dim>
					<dim>128</dim>
				</port>
				<port id="1" precision="FP16">
					<dim>256</dim>
					<dim>16</dim>
					<dim>1</dim>
				</port>
			</input>
			<output>
				<port id="2" precision="FP16">
					<dim>256</dim>
					<dim>16</dim>
					<dim>128</dim>
				</port>
			</output>
		</layer>
		<layer id="105" name="self.model.layers.0.self_attn.k_proj.weight/scale" type="Const" version="opset1">
			<data element_type="f16" shape="256, 16, 1" offset="68091928" size="8192" />
			<output>
				<port id="0" precision="FP16">
					<dim>256</dim>
					<dim>16</dim>
					<dim>1</dim>
				</port>
			</output>
		</layer>
		<layer id="106" name="self.model.layers.0.self_attn.k_proj.weight/fq_weights_1" type="Multiply" version="opset1">
			<data auto_broadcast="numpy" />
			<input>
				<port id="0" precision="FP16">
					<dim>256</dim>
					<dim>16</dim>
					<dim>128</dim>
				</port>
				<port id="1" precision="FP16">
					<dim>256</dim>
					<dim>16</dim>
					<dim>1</dim>
				</port>
			</input>
			<output>
				<port id="2" precision="FP16">
					<dim>256</dim>
					<dim>16</dim>
					<dim>128</dim>
				</port>
			</output>
		</layer>
		<layer id="107" name="Constant_62660" type="Const" version="opset1">
			<data element_type="i32" shape="2" offset="68100120" size="8" />
			<output>
				<port id="0" precision="I32">
					<dim>2</dim>
				</port>
			</output>
		</layer>
		<layer id="108" name="Reshape_62661" type="Reshape" version="opset1">
			<data special_zero="false" />
			<input>
				<port id="0" precision="FP16">
					<dim>256</dim>
					<dim>16</dim>
					<dim>128</dim>
				</port>
				<port id="1" precision="I32">
					<dim>2</dim>
				</port>
			</input>
			<output>
				<port id="2" precision="FP16">
					<dim>256</dim>
					<dim>2048</dim>
				</port>
			</output>
		</layer>
		<layer id="109" name="__module.model.layers.0.self_attn.k_proj/ov_ext::linear/ConvertLike" type="Convert" version="opset1">
			<data destination_type="f32" />
			<rt_info>
				<attribute name="decompression" version="0" />
			</rt_info>
			<input>
				<port id="0" precision="FP16">
					<dim>256</dim>
					<dim>2048</dim>
				</port>
			</input>
			<output>
				<port id="1" precision="FP32">
					<dim>256</dim>
					<dim>2048</dim>
				</port>
			</output>
		</layer>
		<layer id="110" name="__module.model.layers.0.self_attn.k_proj/ov_ext::linear/MatMul" type="MatMul" version="opset1">
			<data transpose_a="false" transpose_b="true" />
			<input>
				<port id="0" precision="FP32">
					<dim>-1</dim>
					<dim>-1</dim>
					<dim>2048</dim>
				</port>
				<port id="1" precision="FP32">
					<dim>256</dim>
					<dim>2048</dim>
				</port>
			</input>
			<output>
				<port id="2" precision="FP32" names="335,key_states.3">
					<dim>-1</dim>
					<dim>-1</dim>
					<dim>256</dim>
				</port>
			</output>
		</layer>
		<layer id="111" name="Constant_47971" type="Const" version="opset1">
			<data element_type="i64" shape="4" offset="68100128" size="32" />
			<output>
				<port id="0" precision="I64">
					<dim>4</dim>
				</port>
			</output>
		</layer>
		<layer id="112" name="__module.model.layers.0.self_attn/aten::view/Reshape_1" type="Reshape" version="opset1">
			<data special_zero="true" />
			<input>
				<port id="0" precision="FP32">
					<dim>-1</dim>
					<dim>-1</dim>
					<dim>256</dim>
				</port>
				<port id="1" precision="I64">
					<dim>4</dim>
				</port>
			</input>
			<output>
				<port id="2" precision="FP32" names="342">
					<dim>-1</dim>
					<dim>-1</dim>
					<dim>4</dim>
					<dim>64</dim>
				</port>
			</output>
		</layer>
		<layer id="113" name="__module.model.layers.0.self_attn/aten::transpose/Constant_1" type="Const" version="opset1">
			<data element_type="i32" shape="4" offset="67827544" size="16" />
			<output>
				<port id="0" precision="I32">
					<dim>4</dim>
				</port>
			</output>
		</layer>
		<layer id="114" name="__module.model.layers.0.self_attn/aten::transpose/Transpose_1" type="Transpose" version="opset1">
			<input>
				<port id="0" precision="FP32">
					<dim>-1</dim>
					<dim>-1</dim>
					<dim>4</dim>
					<dim>64</dim>
				</port>
				<port id="1" precision="I32">
					<dim>4</dim>
				</port>
			</input>
			<output>
				<port id="2" precision="FP32" names="343,k.1">
					<dim>-1</dim>
					<dim>4</dim>
					<dim>-1</dim>
					<dim>64</dim>
				</port>
			</output>
		</layer>
		<layer id="115" name="__module.model.layers.0.self_attn/aten::mul/Multiply_2" type="Multiply" version="opset1">
			<data auto_broadcast="numpy" />
			<input>
				<port id="0" precision="FP32">
					<dim>-1</dim>
					<dim>4</dim>
					<dim>-1</dim>
					<dim>64</dim>
				</port>
				<port id="1" precision="FP32">
					<dim>-1</dim>
					<dim>1</dim>
					<dim>-1</dim>
					<dim>64</dim>
				</port>
			</input>
			<output>
				<port id="2" precision="FP32" names="365">
					<dim>-1</dim>
					<dim>4</dim>
					<dim>-1</dim>
					<dim>64</dim>
				</port>
			</output>
		</layer>
		<layer id="116" name="Constant_1181" type="Const" version="opset1">
			<data element_type="i64" shape="1" offset="67827708" size="8" />
			<output>
				<port id="0" precision="I64">
					<dim>1</dim>
				</port>
			</output>
		</layer>
		<layer id="117" name="Constant_1183" type="Const" version="opset1">
			<data element_type="i64" shape="1" offset="67827716" size="8" />
			<output>
				<port id="0" precision="I64">
					<dim>1</dim>
				</port>
			</output>
		</layer>
		<layer id="118" name="Constant_1185" type="Const" version="opset1">
			<data element_type="i64" shape="1" offset="67827688" size="8" />
			<output>
				<port id="0" precision="I64">
					<dim>1</dim>
				</port>
			</output>
		</layer>
		<layer id="119" name="__module.model.layers.0.self_attn/aten::slice/Slice_2" type="Slice" version="opset8">
			<input>
				<port id="0" precision="FP32">
					<dim>-1</dim>
					<dim>4</dim>
					<dim>-1</dim>
					<dim>64</dim>
				</port>
				<port id="1" precision="I64">
					<dim>1</dim>
				</port>
				<port id="2" precision="I64">
					<dim>1</dim>
				</port>
				<port id="3" precision="I64">
					<dim>1</dim>
				</port>
				<port id="4" precision="I64">
					<dim>1</dim>
				</port>
			</input>
			<output>
				<port id="5" precision="FP32" names="375,x2.3">
					<dim>-1</dim>
					<dim>4</dim>
					<dim>-1</dim>
					<dim>32</dim>
				</port>
			</output>
		</layer>
		<layer id="120" name="Constant_41423" type="Const" version="opset1">
			<data element_type="f32" shape="1, 1, 1, 1" offset="67827732" size="4" />
			<output>
				<port id="0" precision="FP32">
					<dim>1</dim>
					<dim>1</dim>
					<dim>1</dim>
					<dim>1</dim>
				</port>
			</output>
		</layer>
		<layer id="121" name="__module.model.layers.0.self_attn/aten::neg/Multiply_1" type="Multiply" version="opset1">
			<data auto_broadcast="numpy" />
			<input>
				<port id="0" precision="FP32">
					<dim>-1</dim>
					<dim>4</dim>
					<dim>-1</dim>
					<dim>32</dim>
				</port>
				<port id="1" precision="FP32">
					<dim>1</dim>
					<dim>1</dim>
					<dim>1</dim>
					<dim>1</dim>
				</port>
			</input>
			<output>
				<port id="2" precision="FP32" names="376">
					<dim>-1</dim>
					<dim>4</dim>
					<dim>-1</dim>
					<dim>32</dim>
				</port>
			</output>
		</layer>
		<layer id="122" name="Constant_1078" type="Const" version="opset1">
			<data element_type="i64" shape="1" offset="12" size="8" />
			<output>
				<port id="0" precision="I64">
					<dim>1</dim>
				</port>
			</output>
		</layer>
		<layer id="123" name="Constant_1122" type="Const" version="opset1">
			<data element_type="i64" shape="1" offset="67827708" size="8" />
			<output>
				<port id="0" precision="I64">
					<dim>1</dim>
				</port>
			</output>
		</layer>
		<layer id="124" name="Constant_1124" type="Const" version="opset1">
			<data element_type="i64" shape="1" offset="67827688" size="8" />
			<output>
				<port id="0" precision="I64">
					<dim>1</dim>
				</port>
			</output>
		</layer>
		<layer id="125" name="__module.model.layers.0.self_attn/aten::slice/Slice_3" type="Slice" version="opset8">
			<input>
				<port id="0" precision="FP32">
					<dim>-1</dim>
					<dim>4</dim>
					<dim>-1</dim>
					<dim>64</dim>
				</port>
				<port id="1" precision="I64">
					<dim>1</dim>
				</port>
				<port id="2" precision="I64">
					<dim>1</dim>
				</port>
				<port id="3" precision="I64">
					<dim>1</dim>
				</port>
				<port id="4" precision="I64">
					<dim>1</dim>
				</port>
			</input>
			<output>
				<port id="5" precision="FP32" names="370">
					<dim>-1</dim>
					<dim>4</dim>
					<dim>-1</dim>
					<dim>32</dim>
				</port>
			</output>
		</layer>
		<layer id="126" name="__module.model.layers.0.self_attn/aten::cat/Concat_1" type="Concat" version="opset1">
			<data axis="-1" />
			<input>
				<port id="0" precision="FP32">
					<dim>-1</dim>
					<dim>4</dim>
					<dim>-1</dim>
					<dim>32</dim>
				</port>
				<port id="1" precision="FP32">
					<dim>-1</dim>
					<dim>4</dim>
					<dim>-1</dim>
					<dim>32</dim>
				</port>
			</input>
			<output>
				<port id="2" precision="FP32" names="378">
					<dim>-1</dim>
					<dim>4</dim>
					<dim>-1</dim>
					<dim>64</dim>
				</port>
			</output>
		</layer>
		<layer id="127" name="__module.model.layers.0.self_attn/aten::mul/Multiply_3" type="Multiply" version="opset1">
			<data auto_broadcast="numpy" />
			<input>
				<port id="0" precision="FP32">
					<dim>-1</dim>
					<dim>4</dim>
					<dim>-1</dim>
					<dim>64</dim>
				</port>
				<port id="1" precision="FP32">
					<dim>-1</dim>
					<dim>1</dim>
					<dim>-1</dim>
					<dim>64</dim>
				</port>
			</input>
			<output>
				<port id="2" precision="FP32" names="379">
					<dim>-1</dim>
					<dim>4</dim>
					<dim>-1</dim>
					<dim>64</dim>
				</port>
			</output>
		</layer>
		<layer id="128" name="__module.model.layers.0.self_attn/aten::add/Add_1" type="Add" version="opset1">
			<data auto_broadcast="numpy" />
			<input>
				<port id="0" precision="FP32">
					<dim>-1</dim>
					<dim>4</dim>
					<dim>-1</dim>
					<dim>64</dim>
				</port>
				<port id="1" precision="FP32">
					<dim>-1</dim>
					<dim>4</dim>
					<dim>-1</dim>
					<dim>64</dim>
				</port>
			</input>
			<output>
				<port id="2" precision="FP32" names="380,key_states.5">
					<dim>-1</dim>
					<dim>4</dim>
					<dim>-1</dim>
					<dim>64</dim>
				</port>
			</output>
		</layer>
		<layer id="129" name="__module.model.layers.0.self_attn/aten::cat/Concat_2" type="Concat" version="opset1">
			<data axis="-2" />
			<input>
				<port id="0" precision="FP32">
					<dim>-1</dim>
					<dim>4</dim>
					<dim>-1</dim>
					<dim>64</dim>
				</port>
				<port id="1" precision="FP32">
					<dim>-1</dim>
					<dim>4</dim>
					<dim>-1</dim>
					<dim>64</dim>
				</port>
			</input>
			<output>
				<port id="2" precision="FP32" names="393,394,hidden_states.9,present.0.key">
					<dim>-1</dim>
					<dim>4</dim>
					<dim>-1</dim>
					<dim>64</dim>
				</port>
			</output>
		</layer>
		<layer id="130" name="182" type="Const" version="opset1">
			<data element_type="i64" shape="" offset="68100160" size="8" />
			<output>
				<port id="0" precision="I64" names="182" />
			</output>
		</layer>
		<layer id="131" name="__module.model.layers.0.self_attn/aten::unsqueeze/Unsqueeze_2" type="Unsqueeze" version="opset1">
			<input>
				<port id="0" precision="FP32">
					<dim>-1</dim>
					<dim>4</dim>
					<dim>-1</dim>
					<dim>64</dim>
				</port>
				<port id="1" precision="I64" />
			</input>
			<output>
				<port id="2" precision="FP32" names="395,396,397">
					<dim>-1</dim>
					<dim>4</dim>
					<dim>1</dim>
					<dim>-1</dim>
					<dim>64</dim>
				</port>
			</output>
		</layer>
		<layer id="132" name="Constant_36457" type="Const" version="opset1">
			<data element_type="i64" shape="1" offset="4" size="8" />
			<output>
				<port id="0" precision="I64">
					<dim>1</dim>
				</port>
			</output>
		</layer>
		<layer id="133" name="Constant_36459" type="Const" version="opset1">
			<data element_type="i64" shape="1" offset="68100168" size="8" />
			<output>
				<port id="0" precision="I64">
					<dim>1</dim>
				</port>
			</output>
		</layer>
		<layer id="134" name="ShapeOf_42882" type="ShapeOf" version="opset3">
			<data output_type="i64" />
			<input>
				<port id="0" precision="FP32">
					<dim>-1</dim>
					<dim>4</dim>
					<dim>-1</dim>
					<dim>64</dim>
				</port>
			</input>
			<output>
				<port id="1" precision="I64">
					<dim>4</dim>
				</port>
			</output>
		</layer>
		<layer id="135" name="Constant_42883" type="Const" version="opset1">
			<data element_type="i64" shape="" offset="68100160" size="8" />
			<output>
				<port id="0" precision="I64" />
			</output>
		</layer>
		<layer id="136" name="Constant_42884" type="Const" version="opset1">
			<data element_type="i64" shape="" offset="12" size="8" />
			<output>
				<port id="0" precision="I64" />
			</output>
		</layer>
		<layer id="137" name="Gather_42885" type="Gather" version="opset8">
			<data batch_dims="0" />
			<input>
				<port id="0" precision="I64">
					<dim>4</dim>
				</port>
				<port id="1" precision="I64" />
				<port id="2" precision="I64" />
			</input>
			<output>
				<port id="3" precision="I64" names="235" />
			</output>
		</layer>
		<layer id="138" name="Constant_42896" type="Const" version="opset1">
			<data element_type="i64" shape="1" offset="67827688" size="8" />
			<output>
				<port id="0" precision="I64">
					<dim>1</dim>
				</port>
			</output>
		</layer>
		<layer id="139" name="Reshape_42897" type="Reshape" version="opset1">
			<data special_zero="false" />
			<input>
				<port id="0" precision="I64" />
				<port id="1" precision="I64">
					<dim>1</dim>
				</port>
			</input>
			<output>
				<port id="2" precision="I64">
					<dim>1</dim>
				</port>
			</output>
		</layer>
		<layer id="140" name="Constant_42851" type="Const" version="opset1">
			<data element_type="i64" shape="" offset="67827688" size="8" />
			<output>
				<port id="0" precision="I64" />
			</output>
		</layer>
		<layer id="141" name="Constant_42852" type="Const" version="opset1">
			<data element_type="i64" shape="" offset="12" size="8" />
			<output>
				<port id="0" precision="I64" />
			</output>
		</layer>
		<layer id="142" name="Gather_42853" type="Gather" version="opset8">
			<data batch_dims="0" />
			<input>
				<port id="0" precision="I64">
					<dim>3</dim>
				</port>
				<port id="1" precision="I64" />
				<port id="2" precision="I64" />
			</input>
			<output>
				<port id="3" precision="I64" names="237,242" />
			</output>
		</layer>
		<layer id="143" name="Constant_42898" type="Const" version="opset1">
			<data element_type="i64" shape="1" offset="67827688" size="8" />
			<output>
				<port id="0" precision="I64">
					<dim>1</dim>
				</port>
			</output>
		</layer>
		<layer id="144" name="Reshape_42899" type="Reshape" version="opset1">
			<data special_zero="false" />
			<input>
				<port id="0" precision="I64" />
				<port id="1" precision="I64">
					<dim>1</dim>
				</port>
			</input>
			<output>
				<port id="2" precision="I64">
					<dim>1</dim>
				</port>
			</output>
		</layer>
		<layer id="145" name="Add_42900" type="Add" version="opset1">
			<data auto_broadcast="numpy" />
			<input>
				<port id="0" precision="I64">
					<dim>1</dim>
				</port>
				<port id="1" precision="I64">
					<dim>1</dim>
				</port>
			</input>
			<output>
				<port id="2" precision="I64" names="1007,1036,1161,1190,1315,1344,1469,1498,1623,1652,1777,1806,1931,1960,2085,2114,2239,2268,2393,2422,2547,2576,2701,2730,2855,2884,3009,3038,3163,3192,3317,3346,3471,3500,3625,3654,391,420,545,574,699,728,853,882">
					<dim>1</dim>
				</port>
			</output>
		</layer>
		<layer id="146" name="Constant_36462" type="Const" version="opset1">
			<data element_type="i64" shape="1" offset="20" size="8" />
			<output>
				<port id="0" precision="I64">
					<dim>1</dim>
				</port>
			</output>
		</layer>
		<layer id="147" name="__module.model.layers.0.self_attn/prim::ListConstruct_2" type="Concat" version="opset1">
			<data axis="0" />
			<input>
				<port id="0" precision="I64">
					<dim>1</dim>
				</port>
				<port id="1" precision="I64">
					<dim>1</dim>
				</port>
				<port id="2" precision="I64">
					<dim>1</dim>
				</port>
				<port id="3" precision="I64">
					<dim>1</dim>
				</port>
				<port id="4" precision="I64">
					<dim>1</dim>
				</port>
			</input>
			<output>
				<port id="5" precision="I64">
					<dim>5</dim>
				</port>
			</output>
		</layer>
		<layer id="148" name="__module.model.layers.0.self_attn/aten::expand/Broadcast" type="Broadcast" version="opset3">
			<data mode="bidirectional" />
			<input>
				<port id="0" precision="FP32">
					<dim>-1</dim>
					<dim>4</dim>
					<dim>1</dim>
					<dim>-1</dim>
					<dim>64</dim>
				</port>
				<port id="1" precision="I64">
					<dim>5</dim>
				</port>
			</input>
			<output>
				<port id="2" precision="FP32" names="399,hidden_states.11">
					<dim>-1</dim>
					<dim>4</dim>
					<dim>8</dim>
					<dim>-1</dim>
					<dim>64</dim>
				</port>
			</output>
		</layer>
		<layer id="149" name="Constant_47972" type="Const" version="opset1">
			<data element_type="i64" shape="4" offset="68100176" size="32" />
			<output>
				<port id="0" precision="I64">
					<dim>4</dim>
				</port>
			</output>
		</layer>
		<layer id="150" name="__module.model.layers.0.self_attn/aten::reshape/Reshape" type="Reshape" version="opset1">
			<data special_zero="true" />
			<input>
				<port id="0" precision="FP32">
					<dim>-1</dim>
					<dim>4</dim>
					<dim>8</dim>
					<dim>-1</dim>
					<dim>64</dim>
				</port>
				<port id="1" precision="I64">
					<dim>4</dim>
				</port>
			</input>
			<output>
				<port id="2" precision="FP32" names="403,key_states.7">
					<dim>-1</dim>
					<dim>32</dim>
					<dim>-1</dim>
					<dim>64</dim>
				</port>
			</output>
		</layer>
		<layer id="151" name="Constant_50327" type="Const" version="opset1">
			<data element_type="f32" shape="" offset="0" size="4" />
			<output>
				<port id="0" precision="FP32" />
			</output>
		</layer>
		<layer id="152" name="Constant_50320" type="Const" version="opset1">
			<data element_type="i64" shape="1" offset="4" size="8" />
			<output>
				<port id="0" precision="I64">
					<dim>1</dim>
				</port>
			</output>
		</layer>
		<layer id="153" name="Constant_50322" type="Const" version="opset1">
			<data element_type="i64" shape="1" offset="12" size="8" />
			<output>
				<port id="0" precision="I64">
					<dim>1</dim>
				</port>
			</output>
		</layer>
		<layer id="154" name="Constant_50324" type="Const" version="opset1">
			<data element_type="i64" shape="1" offset="20" size="8" />
			<output>
				<port id="0" precision="I64">
					<dim>1</dim>
				</port>
			</output>
		</layer>
		<layer id="155" name="Concat_50325" type="Concat" version="opset1">
			<data axis="0" />
			<input>
				<port id="0" precision="I64">
					<dim>1</dim>
				</port>
				<port id="1" precision="I64">
					<dim>1</dim>
				</port>
				<port id="2" precision="I64">
					<dim>1</dim>
				</port>
				<port id="3" precision="I64">
					<dim>1</dim>
				</port>
			</input>
			<output>
				<port id="4" precision="I64">
					<dim>4</dim>
				</port>
			</output>
		</layer>
		<layer id="156" name="Broadcast_50328" type="Broadcast" version="opset3">
			<data mode="numpy" />
			<input>
				<port id="0" precision="FP32" />
				<port id="1" precision="I64">
					<dim>4</dim>
				</port>
			</input>
			<output>
				<port id="2" precision="FP32">
					<dim>-1</dim>
					<dim>4</dim>
					<dim>0</dim>
					<dim>64</dim>
				</port>
			</output>
		</layer>
		<layer id="157" name="ReadValue_49829" type="ReadValue" version="opset6">
			<data variable_id="past_key_values.0.valuepresent.0.value" variable_type="f32" variable_shape="?,4,?,64" />
			<input>
				<port id="0" precision="FP32">
					<dim>-1</dim>
					<dim>4</dim>
					<dim>0</dim>
					<dim>64</dim>
				</port>
			</input>
			<output>
				<port id="1" precision="FP32" names="past_key_values.0.value">
					<dim>-1</dim>
					<dim>4</dim>
					<dim>-1</dim>
					<dim>64</dim>
				</port>
			</output>
		</layer>
		<layer id="158" name="Constant_49325" type="Const" version="opset1">
			<data element_type="i32" shape="" offset="0" size="4" />
			<output>
				<port id="0" precision="I32" />
			</output>
		</layer>
		<layer id="159" name="Gather_49326" type="Gather" version="opset8">
			<data batch_dims="0" />
			<input>
				<port id="0" precision="FP32">
					<dim>-1</dim>
					<dim>4</dim>
					<dim>-1</dim>
					<dim>64</dim>
				</port>
				<port id="1" precision="I32">
					<dim>-1</dim>
				</port>
				<port id="2" precision="I32" />
			</input>
			<output>
				<port id="3" precision="FP32">
					<dim>-1</dim>
					<dim>4</dim>
					<dim>-1</dim>
					<dim>64</dim>
				</port>
			</output>
		</layer>
		<layer id="160" name="self.model.layers.0.self_attn.v_proj.weight" type="Const" version="opset1">
			<data element_type="u8" shape="256, 2048" offset="68100208" size="524288" />
			<output>
				<port id="0" precision="U8">
					<dim>256</dim>
					<dim>2048</dim>
				</port>
			</output>
		</layer>
		<layer id="161" name="Convert_62644" type="Convert" version="opset1">
			<data destination_type="f16" />
			<input>
				<port id="0" precision="U8">
					<dim>256</dim>
					<dim>2048</dim>
				</port>
			</input>
			<output>
				<port id="1" precision="FP16">
					<dim>256</dim>
					<dim>2048</dim>
				</port>
			</output>
		</layer>
		<layer id="162" name="self.model.layers.0.self_attn.v_proj.weight/zero_point" type="Const" version="opset1">
			<data element_type="u8" shape="256, 1" offset="68624496" size="256" />
			<output>
				<port id="0" precision="U8">
					<dim>256</dim>
					<dim>1</dim>
				</port>
			</output>
		</layer>
		<layer id="163" name="Convert_62647" type="Convert" version="opset1">
			<data destination_type="f16" />
			<input>
				<port id="0" precision="U8">
					<dim>256</dim>
					<dim>1</dim>
				</port>
			</input>
			<output>
				<port id="1" precision="FP16">
					<dim>256</dim>
					<dim>1</dim>
				</port>
			</output>
		</layer>
		<layer id="164" name="self.model.layers.0.self_attn.v_proj.weight/zero_point/subtract" type="Subtract" version="opset1">
			<data auto_broadcast="numpy" />
			<input>
				<port id="0" precision="FP16">
					<dim>256</dim>
					<dim>2048</dim>
				</port>
				<port id="1" precision="FP16">
					<dim>256</dim>
					<dim>1</dim>
				</port>
			</input>
			<output>
				<port id="2" precision="FP16">
					<dim>256</dim>
					<dim>2048</dim>
				</port>
			</output>
		</layer>
		<layer id="165" name="self.model.layers.0.self_attn.v_proj.weight/scale" type="Const" version="opset1">
			<data element_type="f16" shape="256, 1" offset="68624752" size="512" />
			<output>
				<port id="0" precision="FP16">
					<dim>256</dim>
					<dim>1</dim>
				</port>
			</output>
		</layer>
		<layer id="166" name="self.model.layers.0.self_attn.v_proj.weight/fq_weights_1" type="Multiply" version="opset1">
			<data auto_broadcast="numpy" />
			<input>
				<port id="0" precision="FP16">
					<dim>256</dim>
					<dim>2048</dim>
				</port>
				<port id="1" precision="FP16">
					<dim>256</dim>
					<dim>1</dim>
				</port>
			</input>
			<output>
				<port id="2" precision="FP16">
					<dim>256</dim>
					<dim>2048</dim>
				</port>
			</output>
		</layer>
		<layer id="167" name="__module.model.layers.0.self_attn.v_proj/ov_ext::linear/ConvertLike" type="Convert" version="opset1">
			<data destination_type="f32" />
			<rt_info>
				<attribute name="decompression" version="0" />
			</rt_info>
			<input>
				<port id="0" precision="FP16">
					<dim>256</dim>
					<dim>2048</dim>
				</port>
			</input>
			<output>
				<port id="1" precision="FP32">
					<dim>256</dim>
					<dim>2048</dim>
				</port>
			</output>
		</layer>
		<layer id="168" name="__module.model.layers.0.self_attn.v_proj/ov_ext::linear/MatMul" type="MatMul" version="opset1">
			<data transpose_a="false" transpose_b="true" />
			<input>
				<port id="0" precision="FP32">
					<dim>-1</dim>
					<dim>-1</dim>
					<dim>2048</dim>
				</port>
				<port id="1" precision="FP32">
					<dim>256</dim>
					<dim>2048</dim>
				</port>
			</input>
			<output>
				<port id="2" precision="FP32" names="337,value_states.1">
					<dim>-1</dim>
					<dim>-1</dim>
					<dim>256</dim>
				</port>
			</output>
		</layer>
		<layer id="169" name="Constant_47973" type="Const" version="opset1">
			<data element_type="i64" shape="4" offset="68100128" size="32" />
			<output>
				<port id="0" precision="I64">
					<dim>4</dim>
				</port>
			</output>
		</layer>
		<layer id="170" name="__module.model.layers.0.self_attn/aten::view/Reshape_2" type="Reshape" version="opset1">
			<data special_zero="true" />
			<input>
				<port id="0" precision="FP32">
					<dim>-1</dim>
					<dim>-1</dim>
					<dim>256</dim>
				</port>
				<port id="1" precision="I64">
					<dim>4</dim>
				</port>
			</input>
			<output>
				<port id="2" precision="FP32" names="345">
					<dim>-1</dim>
					<dim>-1</dim>
					<dim>4</dim>
					<dim>64</dim>
				</port>
			</output>
		</layer>
		<layer id="171" name="__module.model.layers.0.self_attn/aten::transpose/Constant_2" type="Const" version="opset1">
			<data element_type="i32" shape="4" offset="67827544" size="16" />
			<output>
				<port id="0" precision="I32">
					<dim>4</dim>
				</port>
			</output>
		</layer>
		<layer id="172" name="__module.model.layers.0.self_attn/aten::transpose/Transpose_2" type="Transpose" version="opset1">
			<input>
				<port id="0" precision="FP32">
					<dim>-1</dim>
					<dim>-1</dim>
					<dim>4</dim>
					<dim>64</dim>
				</port>
				<port id="1" precision="I32">
					<dim>4</dim>
				</port>
			</input>
			<output>
				<port id="2" precision="FP32" names="346">
					<dim>-1</dim>
					<dim>4</dim>
					<dim>-1</dim>
					<dim>64</dim>
				</port>
			</output>
		</layer>
		<layer id="173" name="__module.model.layers.0.self_attn/aten::cat/Concat_3" type="Concat" version="opset1">
			<data axis="-2" />
			<input>
				<port id="0" precision="FP32">
					<dim>-1</dim>
					<dim>4</dim>
					<dim>-1</dim>
					<dim>64</dim>
				</port>
				<port id="1" precision="FP32">
					<dim>-1</dim>
					<dim>4</dim>
					<dim>-1</dim>
					<dim>64</dim>
				</port>
			</input>
			<output>
				<port id="2" precision="FP32" names="409,410,hidden_states.13,present.0.value">
					<dim>-1</dim>
					<dim>4</dim>
					<dim>-1</dim>
					<dim>64</dim>
				</port>
			</output>
		</layer>
		<layer id="174" name="__module.model.layers.0.self_attn/aten::unsqueeze/Unsqueeze_3" type="Unsqueeze" version="opset1">
			<input>
				<port id="0" precision="FP32">
					<dim>-1</dim>
					<dim>4</dim>
					<dim>-1</dim>
					<dim>64</dim>
				</port>
				<port id="1" precision="I64" />
			</input>
			<output>
				<port id="2" precision="FP32" names="411,412,413">
					<dim>-1</dim>
					<dim>4</dim>
					<dim>1</dim>
					<dim>-1</dim>
					<dim>64</dim>
				</port>
			</output>
		</layer>
		<layer id="175" name="__module.model.layers.0.self_attn/aten::expand/Broadcast_1" type="Broadcast" version="opset3">
			<data mode="bidirectional" />
			<input>
				<port id="0" precision="FP32">
					<dim>-1</dim>
					<dim>4</dim>
					<dim>1</dim>
					<dim>-1</dim>
					<dim>64</dim>
				</port>
				<port id="1" precision="I64">
					<dim>5</dim>
				</port>
			</input>
			<output>
				<port id="2" precision="FP32" names="415,hidden_states.15">
					<dim>-1</dim>
					<dim>4</dim>
					<dim>8</dim>
					<dim>-1</dim>
					<dim>64</dim>
				</port>
			</output>
		</layer>
		<layer id="176" name="Constant_47974" type="Const" version="opset1">
			<data element_type="i64" shape="4" offset="68100176" size="32" />
			<output>
				<port id="0" precision="I64">
					<dim>4</dim>
				</port>
			</output>
		</layer>
		<layer id="177" name="__module.model.layers.0.self_attn/aten::reshape/Reshape_1" type="Reshape" version="opset1">
			<data special_zero="true" />
			<input>
				<port id="0" precision="FP32">
					<dim>-1</dim>
					<dim>4</dim>
					<dim>8</dim>
					<dim>-1</dim>
					<dim>64</dim>
				</port>
				<port id="1" precision="I64">
					<dim>4</dim>
				</port>
			</input>
			<output>
				<port id="2" precision="FP32" names="419">
					<dim>-1</dim>
					<dim>32</dim>
					<dim>-1</dim>
					<dim>64</dim>
				</port>
			</output>
		</layer>
		<layer id="178" name="__module.model/aten::triu/Constant" type="Const" version="opset1">
			<data element_type="i32" shape="" offset="0" size="4" />
			<output>
				<port id="0" precision="I32" />
			</output>
		</layer>
		<layer id="179" name="Multiply_38463" type="Const" version="opset1">
			<data element_type="f32" shape="" offset="68625264" size="4" />
			<output>
				<port id="0" precision="FP32" />
			</output>
		</layer>
		<layer id="180" name="Constant_38468" type="Const" version="opset1">
			<data element_type="i64" shape="2" offset="68625268" size="16" />
			<output>
				<port id="0" precision="I64">
					<dim>2</dim>
				</port>
			</output>
		</layer>
		<layer id="181" name="ShapeOf_42858" type="ShapeOf" version="opset3">
			<data output_type="i64" />
			<input>
				<port id="0" precision="I64">
					<dim>-1</dim>
					<dim>-1</dim>
				</port>
			</input>
			<output>
				<port id="1" precision="I64">
					<dim>2</dim>
				</port>
			</output>
		</layer>
		<layer id="182" name="Constant_42859" type="Const" version="opset1">
			<data element_type="i64" shape="" offset="67827688" size="8" />
			<output>
				<port id="0" precision="I64" />
			</output>
		</layer>
		<layer id="183" name="Constant_42860" type="Const" version="opset1">
			<data element_type="i64" shape="" offset="12" size="8" />
			<output>
				<port id="0" precision="I64" />
			</output>
		</layer>
		<layer id="184" name="Gather_42861" type="Gather" version="opset8">
			<data batch_dims="0" />
			<input>
				<port id="0" precision="I64">
					<dim>2</dim>
				</port>
				<port id="1" precision="I64" />
				<port id="2" precision="I64" />
			</input>
			<output>
				<port id="3" precision="I64" names="243,261" />
			</output>
		</layer>
		<layer id="185" name="Constant_42862" type="Const" version="opset1">
			<data element_type="i64" shape="1" offset="67827688" size="8" />
			<output>
				<port id="0" precision="I64">
					<dim>1</dim>
				</port>
			</output>
		</layer>
		<layer id="186" name="Reshape_42863" type="Reshape" version="opset1">
			<data special_zero="false" />
			<input>
				<port id="0" precision="I64" />
				<port id="1" precision="I64">
					<dim>1</dim>
				</port>
			</input>
			<output>
				<port id="2" precision="I64">
					<dim>1</dim>
				</port>
			</output>
		</layer>
		<layer id="187" name="__module.model/prim::ListConstruct" type="Concat" version="opset1">
			<data axis="0" />
			<input>
				<port id="0" precision="I64">
					<dim>1</dim>
				</port>
				<port id="1" precision="I64">
					<dim>1</dim>
				</port>
			</input>
			<output>
				<port id="2" precision="I64">
					<dim>2</dim>
				</port>
			</output>
		</layer>
		<layer id="188" name="Maximum_38469" type="Maximum" version="opset1">
			<data auto_broadcast="numpy" />
			<input>
				<port id="0" precision="I64">
					<dim>2</dim>
				</port>
				<port id="1" precision="I64">
					<dim>2</dim>
				</port>
			</input>
			<output>
				<port id="2" precision="I64">
					<dim>2</dim>
				</port>
			</output>
		</layer>
		<layer id="189" name="__module.model/aten::mul/Multiply" type="Broadcast" version="opset3">
			<data mode="numpy" />
			<input>
				<port id="0" precision="FP32" />
				<port id="1" precision="I64">
					<dim>2</dim>
				</port>
			</input>
			<output>
				<port id="2" precision="FP32" names="246">
					<dim>-1</dim>
					<dim>-1</dim>
				</port>
			</output>
		</layer>
		<layer id="190" name="ShapeOf_42868" type="ShapeOf" version="opset3">
			<data output_type="i32" />
			<input>
				<port id="0" precision="FP32">
					<dim>-1</dim>
					<dim>-1</dim>
				</port>
			</input>
			<output>
				<port id="1" precision="I32">
					<dim>2</dim>
				</port>
			</output>
		</layer>
		<layer id="191" name="Constant_42869" type="Const" version="opset1">
			<data element_type="i64" shape="" offset="67827688" size="8" />
			<output>
				<port id="0" precision="I64" />
			</output>
		</layer>
		<layer id="192" name="Constant_42870" type="Const" version="opset1">
			<data element_type="i64" shape="" offset="12" size="8" />
			<output>
				<port id="0" precision="I64" />
			</output>
		</layer>
		<layer id="193" name="Gather_42871" type="Gather" version="opset8">
			<data batch_dims="0" />
			<input>
				<port id="0" precision="I32">
					<dim>2</dim>
				</port>
				<port id="1" precision="I64" />
				<port id="2" precision="I64" />
			</input>
			<output>
				<port id="3" precision="I32" />
			</output>
		</layer>
		<layer id="194" name="__module.model/aten::triu/Constant_2" type="Const" version="opset1">
			<data element_type="i32" shape="" offset="68625284" size="4" />
			<output>
				<port id="0" precision="I32" />
			</output>
		</layer>
		<layer id="195" name="__module.model/aten::triu/Range" type="Range" version="opset4">
			<data output_type="i32" />
			<input>
				<port id="0" precision="I32" />
				<port id="1" precision="I32" />
				<port id="2" precision="I32" />
			</input>
			<output>
				<port id="3" precision="I32">
					<dim>-1</dim>
				</port>
			</output>
		</layer>
		<layer id="196" name="__module.model/aten::triu/Unsqueeze" type="Unsqueeze" version="opset1">
			<input>
				<port id="0" precision="I32">
					<dim>-1</dim>
				</port>
				<port id="1" precision="I32" />
			</input>
			<output>
				<port id="2" precision="I32">
					<dim>1</dim>
					<dim>-1</dim>
				</port>
			</output>
		</layer>
		<layer id="197" name="__module.model/aten::triu/Convert" type="Const" version="opset1">
			<data element_type="i32" shape="" offset="68625284" size="4" />
			<output>
				<port id="0" precision="I32" />
			</output>
		</layer>
		<layer id="198" name="Constant_42875" type="Const" version="opset1">
			<data element_type="i64" shape="" offset="12" size="8" />
			<output>
				<port id="0" precision="I64" />
			</output>
		</layer>
		<layer id="199" name="Constant_42876" type="Const" version="opset1">
			<data element_type="i64" shape="" offset="12" size="8" />
			<output>
				<port id="0" precision="I64" />
			</output>
		</layer>
		<layer id="200" name="Gather_42877" type="Gather" version="opset8">
			<data batch_dims="0" />
			<input>
				<port id="0" precision="I32">
					<dim>2</dim>
				</port>
				<port id="1" precision="I64" />
				<port id="2" precision="I64" />
			</input>
			<output>
				<port id="3" precision="I32" />
			</output>
		</layer>
		<layer id="201" name="__module.model/aten::triu/Add" type="Add" version="opset1">
			<data auto_broadcast="numpy" />
			<input>
				<port id="0" precision="I32" />
				<port id="1" precision="I32" />
			</input>
			<output>
				<port id="2" precision="I32" />
			</output>
		</layer>
		<layer id="202" name="__module.model/aten::triu/Range_1" type="Range" version="opset4">
			<data output_type="i32" />
			<input>
				<port id="0" precision="I32" />
				<port id="1" precision="I32" />
				<port id="2" precision="I32" />
			</input>
			<output>
				<port id="3" precision="I32">
					<dim>-1</dim>
				</port>
			</output>
		</layer>
		<layer id="203" name="__module.model/aten::triu/Unsqueeze_1" type="Unsqueeze" version="opset1">
			<input>
				<port id="0" precision="I32">
					<dim>-1</dim>
				</port>
				<port id="1" precision="I32" />
			</input>
			<output>
				<port id="2" precision="I32">
					<dim>-1</dim>
					<dim>1</dim>
				</port>
			</output>
		</layer>
		<layer id="204" name="__module.model/aten::triu/GreaterEqual" type="GreaterEqual" version="opset1">
			<data auto_broadcast="numpy" />
			<input>
				<port id="0" precision="I32">
					<dim>1</dim>
					<dim>-1</dim>
				</port>
				<port id="1" precision="I32">
					<dim>-1</dim>
					<dim>1</dim>
				</port>
			</input>
			<output>
				<port id="2" precision="BOOL">
					<dim>-1</dim>
					<dim>-1</dim>
				</port>
			</output>
		</layer>
		<layer id="205" name="__module.model/aten::triu/ConvertLike" type="Const" version="opset1">
			<data element_type="f32" shape="" offset="0" size="4" />
			<output>
				<port id="0" precision="FP32" />
			</output>
		</layer>
		<layer id="206" name="__module.model/aten::triu/Select" type="Select" version="opset1">
			<data auto_broadcast="numpy" />
			<input>
				<port id="0" precision="BOOL">
					<dim>-1</dim>
					<dim>-1</dim>
				</port>
				<port id="1" precision="FP32">
					<dim>-1</dim>
					<dim>-1</dim>
				</port>
				<port id="2" precision="FP32" />
			</input>
			<output>
				<port id="3" precision="FP32" names="247_1">
					<dim>-1</dim>
					<dim>-1</dim>
				</port>
			</output>
		</layer>
		<layer id="207" name="__module.model/aten::arange/Constant" type="Const" version="opset1">
			<data element_type="i32" shape="" offset="0" size="4" />
			<output>
				<port id="0" precision="I32" />
			</output>
		</layer>
		<layer id="208" name="__module.model/aten::arange/Constant_1" type="Const" version="opset1">
			<data element_type="i32" shape="" offset="68625284" size="4" />
			<output>
				<port id="0" precision="I32" />
			</output>
		</layer>
		<layer id="209" name="__module.model/aten::arange/Range" type="Range" version="opset4">
			<data output_type="f32" />
			<input>
				<port id="0" precision="I32" />
				<port id="1" precision="I64" />
				<port id="2" precision="I32" />
			</input>
			<output>
				<port id="3" precision="FP32">
					<dim>-1</dim>
				</port>
			</output>
		</layer>
		<layer id="210" name="__module.model/aten::arange/ConvertLike" type="Convert" version="opset1">
			<data destination_type="i64" />
			<input>
				<port id="0" precision="FP32">
					<dim>-1</dim>
				</port>
			</input>
			<output>
				<port id="1" precision="I64" names="248">
					<dim>-1</dim>
				</port>
			</output>
		</layer>
		<layer id="211" name="__module.model/aten::gt/Convert" type="Convert" version="opset1">
			<data destination_type="f32" />
			<input>
				<port id="0" precision="I64">
					<dim>-1</dim>
				</port>
			</input>
			<output>
				<port id="1" precision="FP32">
					<dim>-1</dim>
				</port>
			</output>
		</layer>
		<layer id="212" name="__module.model/aten::add/Add" type="Add" version="opset1">
			<data auto_broadcast="numpy" />
			<input>
				<port id="0" precision="I64" />
				<port id="1" precision="I64" />
			</input>
			<output>
				<port id="2" precision="I64" names="239" />
			</output>
		</layer>
		<layer id="213" name="__module.model/aten::arange/Constant_2" type="Const" version="opset1">
			<data element_type="i32" shape="" offset="68625284" size="4" />
			<output>
				<port id="0" precision="I32" />
			</output>
		</layer>
		<layer id="214" name="__module.model/aten::arange/Range_1" type="Range" version="opset4">
			<data output_type="f32" />
			<input>
				<port id="0" precision="I64" />
				<port id="1" precision="I64" />
				<port id="2" precision="I32" />
			</input>
			<output>
				<port id="3" precision="FP32" names="241,cache_position">
					<dim>-1</dim>
				</port>
			</output>
		</layer>
		<layer id="215" name="Constant_249" type="Const" version="opset1">
			<data element_type="i64" shape="2" offset="68625288" size="16" />
			<output>
				<port id="0" precision="I64" names="249">
					<dim>2</dim>
				</port>
			</output>
		</layer>
		<layer id="216" name="__module.model/aten::reshape/Reshape" type="Reshape" version="opset1">
			<data special_zero="false" />
			<input>
				<port id="0" precision="FP32">
					<dim>-1</dim>
				</port>
				<port id="1" precision="I64">
					<dim>2</dim>
				</port>
			</input>
			<output>
				<port id="2" precision="FP32" names="250">
					<dim>-1</dim>
					<dim>1</dim>
				</port>
			</output>
		</layer>
		<layer id="217" name="__module.model/aten::gt/Greater" type="Greater" version="opset1">
			<data auto_broadcast="numpy" />
			<input>
				<port id="0" precision="FP32">
					<dim>-1</dim>
				</port>
				<port id="1" precision="FP32">
					<dim>-1</dim>
					<dim>1</dim>
				</port>
			</input>
			<output>
				<port id="2" precision="BOOL" names="251">
					<dim>-1</dim>
					<dim>-1</dim>
				</port>
			</output>
		</layer>
		<layer id="218" name="__module.model/aten::mul_/ConvertLike" type="Convert" version="opset1">
			<data destination_type="f32" />
			<input>
				<port id="0" precision="BOOL">
					<dim>-1</dim>
					<dim>-1</dim>
				</port>
			</input>
			<output>
				<port id="1" precision="FP32">
					<dim>-1</dim>
					<dim>-1</dim>
				</port>
			</output>
		</layer>
		<layer id="219" name="__module.model/aten::mul_/Multiply" type="Multiply" version="opset1">
			<data auto_broadcast="numpy" />
			<input>
				<port id="0" precision="FP32">
					<dim>-1</dim>
					<dim>-1</dim>
				</port>
				<port id="1" precision="FP32">
					<dim>-1</dim>
					<dim>-1</dim>
				</port>
			</input>
			<output>
				<port id="2" precision="FP32" names="247,causal_mask.1">
					<dim>-1</dim>
					<dim>-1</dim>
				</port>
			</output>
		</layer>
		<layer id="220" name="173" type="Const" version="opset1">
			<data element_type="i64" shape="" offset="12" size="8" />
			<output>
				<port id="0" precision="I64" names="173" />
			</output>
		</layer>
		<layer id="221" name="__module.model/aten::unsqueeze/Unsqueeze" type="Unsqueeze" version="opset1">
			<input>
				<port id="0" precision="FP32">
					<dim>-1</dim>
					<dim>-1</dim>
				</port>
				<port id="1" precision="I64" />
			</input>
			<output>
				<port id="2" precision="FP32" names="253">
					<dim>1</dim>
					<dim>-1</dim>
					<dim>-1</dim>
				</port>
			</output>
		</layer>
		<layer id="222" name="__module.model/aten::unsqueeze/Unsqueeze_1" type="Unsqueeze" version="opset1">
			<input>
				<port id="0" precision="FP32">
					<dim>1</dim>
					<dim>-1</dim>
					<dim>-1</dim>
				</port>
				<port id="1" precision="I64" />
			</input>
			<output>
				<port id="2" precision="FP32" names="254,255,256">
					<dim>1</dim>
					<dim>1</dim>
					<dim>-1</dim>
					<dim>-1</dim>
				</port>
			</output>
		</layer>
		<layer id="223" name="Constant_36485" type="Const" version="opset1">
			<data element_type="i64" shape="1" offset="67827688" size="8" />
			<output>
				<port id="0" precision="I64">
					<dim>1</dim>
				</port>
			</output>
		</layer>
		<layer id="224" name="Constant_36487" type="Const" version="opset1">
			<data element_type="i64" shape="1" offset="67827688" size="8" />
			<output>
				<port id="0" precision="I64">
					<dim>1</dim>
				</port>
			</output>
		</layer>
		<layer id="225" name="Constant_36489" type="Const" version="opset1">
			<data element_type="i64" shape="1" offset="67827688" size="8" />
			<output>
				<port id="0" precision="I64">
					<dim>1</dim>
				</port>
			</output>
		</layer>
		<layer id="226" name="__module.model/prim::ListConstruct_1" type="Concat" version="opset1">
			<data axis="0" />
			<input>
				<port id="0" precision="I64">
					<dim>1</dim>
				</port>
				<port id="1" precision="I64">
					<dim>1</dim>
				</port>
				<port id="2" precision="I64">
					<dim>1</dim>
				</port>
				<port id="3" precision="I64">
					<dim>1</dim>
				</port>
			</input>
			<output>
				<port id="4" precision="I64">
					<dim>4</dim>
				</port>
			</output>
		</layer>
		<layer id="227" name="__module.model/aten::expand/Broadcast" type="Broadcast" version="opset3">
			<data mode="bidirectional" />
			<input>
				<port id="0" precision="FP32">
					<dim>1</dim>
					<dim>1</dim>
					<dim>-1</dim>
					<dim>-1</dim>
				</port>
				<port id="1" precision="I64">
					<dim>4</dim>
				</port>
			</input>
			<output>
				<port id="2" precision="FP32" names="259,262,263,264,272,273,274,277_1,278_1,279_1,causal_mask.5">
					<dim>-1</dim>
					<dim>1</dim>
					<dim>-1</dim>
					<dim>-1</dim>
				</port>
			</output>
		</layer>
		<layer id="228" name="Constant_27677" type="Const" version="opset1">
			<data element_type="i64" shape="1" offset="65648420" size="8" />
			<output>
				<port id="0" precision="I64">
					<dim>1</dim>
				</port>
			</output>
		</layer>
		<layer id="229" name="SliceAssign_466/Reshape_3" type="Reshape" version="opset1">
			<data special_zero="false" />
			<input>
				<port id="0" precision="FP32">
					<dim>-1</dim>
					<dim>1</dim>
					<dim>-1</dim>
					<dim>-1</dim>
				</port>
				<port id="1" precision="I64">
					<dim>1</dim>
				</port>
			</input>
			<output>
				<port id="2" precision="FP32">
					<dim>-1</dim>
				</port>
			</output>
		</layer>
		<layer id="230" name="Constant_22695" type="Const" version="opset1">
			<data element_type="i64" shape="" offset="12" size="8" />
			<output>
				<port id="0" precision="I64" />
			</output>
		</layer>
		<layer id="231" name="SliceAssign_466/ShapeOf" type="ShapeOf" version="opset3">
			<data output_type="i64" />
			<input>
				<port id="0" precision="FP32">
					<dim>-1</dim>
					<dim>1</dim>
					<dim>-1</dim>
					<dim>-1</dim>
				</port>
			</input>
			<output>
				<port id="1" precision="I64">
					<dim>4</dim>
				</port>
			</output>
		</layer>
		<layer id="232" name="SliceAssign_466/ReduceProd" type="ReduceProd" version="opset1">
			<data keep_dims="false" />
			<input>
				<port id="0" precision="I64">
					<dim>4</dim>
				</port>
				<port id="1" precision="I64" />
			</input>
			<output>
				<port id="2" precision="I64" />
			</output>
		</layer>
		<layer id="233" name="Constant_22696" type="Const" version="opset1">
			<data element_type="i64" shape="" offset="67827688" size="8" />
			<output>
				<port id="0" precision="I64" />
			</output>
		</layer>
		<layer id="234" name="SliceAssign_466/Range" type="Range" version="opset4">
			<data output_type="i64" />
			<input>
				<port id="0" precision="I64" />
				<port id="1" precision="I64" />
				<port id="2" precision="I64" />
			</input>
			<output>
				<port id="3" precision="I64">
					<dim>-1</dim>
				</port>
			</output>
		</layer>
		<layer id="235" name="SliceAssign_466/Reshape" type="Reshape" version="opset1">
			<data special_zero="false" />
			<input>
				<port id="0" precision="I64">
					<dim>-1</dim>
				</port>
				<port id="1" precision="I64">
					<dim>4</dim>
				</port>
			</input>
			<output>
				<port id="2" precision="I64">
					<dim>-1</dim>
					<dim>1</dim>
					<dim>-1</dim>
					<dim>-1</dim>
				</port>
			</output>
		</layer>
		<layer id="236" name="Constant_455" type="Const" version="opset1">
			<data element_type="i64" shape="1" offset="12" size="8" />
			<output>
				<port id="0" precision="I64">
					<dim>1</dim>
				</port>
			</output>
		</layer>
		<layer id="237" name="Constant_458" type="Const" version="opset1">
			<data element_type="i64" shape="1" offset="67827688" size="8" />
			<output>
				<port id="0" precision="I64">
					<dim>1</dim>
				</port>
			</output>
		</layer>
		<layer id="238" name="SliceAssign_466/Slice_2" type="Slice" version="opset8">
			<input>
				<port id="0" precision="I64">
					<dim>-1</dim>
					<dim>1</dim>
					<dim>-1</dim>
					<dim>-1</dim>
				</port>
				<port id="1" precision="I64">
					<dim>1</dim>
				</port>
				<port id="2" precision="I64">
					<dim>1</dim>
				</port>
				<port id="3" precision="I64">
					<dim>1</dim>
				</port>
				<port id="4" precision="I64">
					<dim>1</dim>
				</port>
			</input>
			<output>
				<port id="5" precision="I64">
					<dim>-1</dim>
					<dim>1</dim>
					<dim>-1</dim>
					<dim>-1</dim>
				</port>
			</output>
		</layer>
		<layer id="239" name="Constant_22698" type="Const" version="opset1">
			<data element_type="i64" shape="2" offset="68625288" size="16" />
			<output>
				<port id="0" precision="I64">
					<dim>2</dim>
				</port>
			</output>
		</layer>
		<layer id="240" name="SliceAssign_466/Reshape_4" type="Reshape" version="opset1">
			<data special_zero="false" />
			<input>
				<port id="0" precision="I64">
					<dim>-1</dim>
					<dim>1</dim>
					<dim>-1</dim>
					<dim>-1</dim>
				</port>
				<port id="1" precision="I64">
					<dim>2</dim>
				</port>
			</input>
			<output>
				<port id="2" precision="I64">
					<dim>-1</dim>
					<dim>1</dim>
				</port>
			</output>
		</layer>
		<layer id="241" name="Constant_338" type="Const" version="opset1">
			<data element_type="i64" shape="1" offset="12" size="8" />
			<output>
				<port id="0" precision="I64">
					<dim>1</dim>
				</port>
			</output>
		</layer>
		<layer id="242" name="Constant_341" type="Const" version="opset1">
			<data element_type="i64" shape="1" offset="67827688" size="8" />
			<output>
				<port id="0" precision="I64">
					<dim>1</dim>
				</port>
			</output>
		</layer>
		<layer id="243" name="__module.model/aten::slice/Slice_5" type="Slice" version="opset8">
			<input>
				<port id="0" precision="FP32">
					<dim>-1</dim>
					<dim>1</dim>
					<dim>-1</dim>
					<dim>-1</dim>
				</port>
				<port id="1" precision="I64">
					<dim>1</dim>
				</port>
				<port id="2" precision="I64">
					<dim>1</dim>
				</port>
				<port id="3" precision="I64">
					<dim>1</dim>
				</port>
				<port id="4" precision="I64">
					<dim>1</dim>
				</port>
			</input>
			<output>
				<port id="5" precision="FP32" names="265,275,280_1">
					<dim>-1</dim>
					<dim>1</dim>
					<dim>-1</dim>
					<dim>-1</dim>
				</port>
			</output>
		</layer>
		<layer id="244" name="__module.model/aten::unsqueeze/Unsqueeze_2" type="Unsqueeze" version="opset1">
			<input>
				<port id="0" precision="I64">
					<dim>-1</dim>
					<dim>-1</dim>
				</port>
				<port id="1" precision="I64" />
			</input>
			<output>
				<port id="2" precision="I64" names="267">
					<dim>-1</dim>
					<dim>1</dim>
					<dim>-1</dim>
				</port>
			</output>
		</layer>
		<layer id="245" name="__module.model/aten::unsqueeze/Unsqueeze_3" type="Unsqueeze" version="opset1">
			<input>
				<port id="0" precision="I64">
					<dim>-1</dim>
					<dim>1</dim>
					<dim>-1</dim>
				</port>
				<port id="1" precision="I64" />
			</input>
			<output>
				<port id="2" precision="I64" names="268,269">
					<dim>-1</dim>
					<dim>1</dim>
					<dim>1</dim>
					<dim>-1</dim>
				</port>
			</output>
		</layer>
		<layer id="246" name="__module.model/aten::add/Convert" type="Convert" version="opset1">
			<data destination_type="f32" />
			<input>
				<port id="0" precision="I64">
					<dim>-1</dim>
					<dim>1</dim>
					<dim>1</dim>
					<dim>-1</dim>
				</port>
			</input>
			<output>
				<port id="1" precision="FP32">
					<dim>-1</dim>
					<dim>1</dim>
					<dim>1</dim>
					<dim>-1</dim>
				</port>
			</output>
		</layer>
		<layer id="247" name="__module.model/aten::add/Add_1" type="Add" version="opset1">
			<data auto_broadcast="numpy" />
			<input>
				<port id="0" precision="FP32">
					<dim>-1</dim>
					<dim>1</dim>
					<dim>-1</dim>
					<dim>-1</dim>
				</port>
				<port id="1" precision="FP32">
					<dim>-1</dim>
					<dim>1</dim>
					<dim>1</dim>
					<dim>-1</dim>
				</port>
			</input>
			<output>
				<port id="2" precision="FP32" names="270,padding_mask.1">
					<dim>-1</dim>
					<dim>1</dim>
					<dim>-1</dim>
					<dim>-1</dim>
				</port>
			</output>
		</layer>
		<layer id="248" name="Constant_41424" type="Const" version="opset1">
			<data element_type="f32" shape="1, 1, 1, 1" offset="0" size="4" />
			<output>
				<port id="0" precision="FP32">
					<dim>1</dim>
					<dim>1</dim>
					<dim>1</dim>
					<dim>1</dim>
				</port>
			</output>
		</layer>
		<layer id="249" name="__module.model/aten::eq/Equal" type="Equal" version="opset1">
			<data auto_broadcast="numpy" />
			<input>
				<port id="0" precision="FP32">
					<dim>-1</dim>
					<dim>1</dim>
					<dim>-1</dim>
					<dim>-1</dim>
				</port>
				<port id="1" precision="FP32">
					<dim>1</dim>
					<dim>1</dim>
					<dim>1</dim>
					<dim>1</dim>
				</port>
			</input>
			<output>
				<port id="2" precision="BOOL" names="271,padding_mask">
					<dim>-1</dim>
					<dim>1</dim>
					<dim>-1</dim>
					<dim>-1</dim>
				</port>
			</output>
		</layer>
		<layer id="250" name="170" type="Const" version="opset1">
			<data element_type="f32" shape="" offset="68625264" size="4" />
			<output>
				<port id="0" precision="FP32" names="170" />
			</output>
		</layer>
		<layer id="251" name="__module.model/aten::masked_fill/Select" type="Select" version="opset1">
			<data auto_broadcast="numpy" />
			<input>
				<port id="0" precision="BOOL">
					<dim>-1</dim>
					<dim>1</dim>
					<dim>-1</dim>
					<dim>-1</dim>
				</port>
				<port id="1" precision="FP32" />
				<port id="2" precision="FP32">
					<dim>-1</dim>
					<dim>1</dim>
					<dim>-1</dim>
					<dim>-1</dim>
				</port>
			</input>
			<output>
				<port id="3" precision="FP32" names="276">
					<dim>-1</dim>
					<dim>1</dim>
					<dim>-1</dim>
					<dim>-1</dim>
				</port>
			</output>
		</layer>
		<layer id="252" name="__module.model/aten::copy_/ShapeOf" type="ShapeOf" version="opset3">
			<data output_type="i64" />
			<input>
				<port id="0" precision="FP32">
					<dim>-1</dim>
					<dim>1</dim>
					<dim>-1</dim>
					<dim>-1</dim>
				</port>
			</input>
			<output>
				<port id="1" precision="I64">
					<dim>4</dim>
				</port>
			</output>
		</layer>
		<layer id="253" name="__module.model/aten::copy_/Broadcast" type="Broadcast" version="opset3">
			<data mode="numpy" />
			<input>
				<port id="0" precision="FP32">
					<dim>-1</dim>
					<dim>1</dim>
					<dim>-1</dim>
					<dim>-1</dim>
				</port>
				<port id="1" precision="I64">
					<dim>4</dim>
				</port>
			</input>
			<output>
				<port id="2" precision="FP32" names="280">
					<dim>-1</dim>
					<dim>1</dim>
					<dim>-1</dim>
					<dim>-1</dim>
				</port>
			</output>
		</layer>
		<layer id="254" name="Constant_27679" type="Const" version="opset1">
			<data element_type="i64" shape="1" offset="65648420" size="8" />
			<output>
				<port id="0" precision="I64">
					<dim>1</dim>
				</port>
			</output>
		</layer>
		<layer id="255" name="SliceAssign_466/Reshape_5" type="Reshape" version="opset1">
			<data special_zero="false" />
			<input>
				<port id="0" precision="FP32">
					<dim>-1</dim>
					<dim>1</dim>
					<dim>-1</dim>
					<dim>-1</dim>
				</port>
				<port id="1" precision="I64">
					<dim>1</dim>
				</port>
			</input>
			<output>
				<port id="2" precision="FP32">
					<dim>-1</dim>
				</port>
			</output>
		</layer>
		<layer id="256" name="SliceAssign_466/ScatterNDUpdate" type="ScatterNDUpdate" version="opset4">
			<input>
				<port id="0" precision="FP32">
					<dim>-1</dim>
				</port>
				<port id="1" precision="I64">
					<dim>-1</dim>
					<dim>1</dim>
				</port>
				<port id="2" precision="FP32">
					<dim>-1</dim>
				</port>
			</input>
			<output>
				<port id="3" precision="FP32">
					<dim>-1</dim>
				</port>
			</output>
		</layer>
		<layer id="257" name="SliceAssign_466/Reshape_6" type="Reshape" version="opset1">
			<data special_zero="false" />
			<input>
				<port id="0" precision="FP32">
					<dim>-1</dim>
				</port>
				<port id="1" precision="I64">
					<dim>4</dim>
				</port>
			</input>
			<output>
				<port id="2" precision="FP32" names="1037,1038,1039,1191,1192,1193,1345,1346,1347,1499,1500,1501,1653,1654,1655,1807,1808,1809,1961,1962,1963,2115,2116,2117,2269,2270,2271,2423,2424,2425,2577,2578,2579,260,2731,2732,2733,2885,2886,2887,3039,3040,3041,3193,3194,3195,3347,3348,3349,3501,3502,3503,3655,3656,3657,421,422,423,575,576,577,729,730,731,883,884,885">
					<dim>-1</dim>
					<dim>1</dim>
					<dim>-1</dim>
					<dim>-1</dim>
				</port>
			</output>
		</layer>
		<layer id="258" name="Constant_1441" type="Const" version="opset1">
			<data element_type="i64" shape="1" offset="12" size="8" />
			<output>
				<port id="0" precision="I64">
					<dim>1</dim>
				</port>
			</output>
		</layer>
		<layer id="259" name="Constant_1444" type="Const" version="opset1">
			<data element_type="i64" shape="1" offset="67827688" size="8" />
			<output>
				<port id="0" precision="I64">
					<dim>1</dim>
				</port>
			</output>
		</layer>
		<layer id="260" name="__module.model.layers.0.self_attn/aten::slice/Slice_15" type="Slice" version="opset8">
			<input>
				<port id="0" precision="FP32">
					<dim>-1</dim>
					<dim>1</dim>
					<dim>-1</dim>
					<dim>-1</dim>
				</port>
				<port id="1" precision="I64">
					<dim>1</dim>
				</port>
				<port id="2" precision="I64">
					<dim>1</dim>
				</port>
				<port id="3" precision="I64">
					<dim>1</dim>
				</port>
				<port id="4" precision="I64">
					<dim>1</dim>
				</port>
			</input>
			<output>
				<port id="5" precision="FP32" names="1040,1194,1348,1502,1656,1810,1964,2118,2272,2426,2580,2734,2888,3042,3196,3350,3504,3658,424,578,732,886">
					<dim>-1</dim>
					<dim>1</dim>
					<dim>-1</dim>
					<dim>-1</dim>
				</port>
			</output>
		</layer>
		<layer id="261" name="__module.model.layers.0.self_attn/aten::scaled_dot_product_attention/ScaledDotProductAttention" type="ScaledDotProductAttention" version="opset13">
			<data causal="false" />
			<input>
				<port id="0" precision="FP32">
					<dim>-1</dim>
					<dim>32</dim>
					<dim>-1</dim>
					<dim>64</dim>
				</port>
				<port id="1" precision="FP32">
					<dim>-1</dim>
					<dim>32</dim>
					<dim>-1</dim>
					<dim>64</dim>
				</port>
				<port id="2" precision="FP32">
					<dim>-1</dim>
					<dim>32</dim>
					<dim>-1</dim>
					<dim>64</dim>
				</port>
				<port id="3" precision="FP32">
					<dim>-1</dim>
					<dim>1</dim>
					<dim>-1</dim>
					<dim>-1</dim>
				</port>
			</input>
			<output>
				<port id="4" precision="FP32" names="425,attn_output.1">
					<dim>-1</dim>
					<dim>32</dim>
					<dim>-1</dim>
					<dim>64</dim>
				</port>
			</output>
		</layer>
		<layer id="262" name="__module.model.layers.0.self_attn/aten::transpose/Constant_3" type="Const" version="opset1">
			<data element_type="i32" shape="4" offset="67827544" size="16" />
			<output>
				<port id="0" precision="I32">
					<dim>4</dim>
				</port>
			</output>
		</layer>
		<layer id="263" name="__module.model.layers.0.self_attn/aten::transpose/Transpose_3" type="Transpose" version="opset1">
			<input>
				<port id="0" precision="FP32">
					<dim>-1</dim>
					<dim>32</dim>
					<dim>-1</dim>
					<dim>64</dim>
				</port>
				<port id="1" precision="I32">
					<dim>4</dim>
				</port>
			</input>
			<output>
				<port id="2" precision="FP32" names="426">
					<dim>-1</dim>
					<dim>-1</dim>
					<dim>32</dim>
					<dim>64</dim>
				</port>
			</output>
		</layer>
		<layer id="264" name="Constant_37860" type="Const" version="opset1">
			<data element_type="i64" shape="2" offset="68625304" size="16" />
			<output>
				<port id="0" precision="I64">
					<dim>2</dim>
				</port>
			</output>
		</layer>
		<layer id="265" name="Constant_37861" type="Const" version="opset1">
			<data element_type="i64" shape="" offset="12" size="8" />
			<output>
				<port id="0" precision="I64" />
			</output>
		</layer>
		<layer id="266" name="Gather_37862" type="Gather" version="opset8">
			<data batch_dims="0" />
			<input>
				<port id="0" precision="I64">
					<dim>3</dim>
				</port>
				<port id="1" precision="I64">
					<dim>2</dim>
				</port>
				<port id="2" precision="I64" />
			</input>
			<output>
				<port id="3" precision="I64">
					<dim>2</dim>
				</port>
			</output>
		</layer>
		<layer id="267" name="Constant_1518" type="Const" version="opset1">
			<data element_type="i64" shape="1" offset="65648420" size="8" />
			<output>
				<port id="0" precision="I64">
					<dim>1</dim>
				</port>
			</output>
		</layer>
		<layer id="268" name="__module.model.layers.0.self_attn/prim::ListConstruct_7" type="Concat" version="opset1">
			<data axis="0" />
			<input>
				<port id="0" precision="I64">
					<dim>2</dim>
				</port>
				<port id="1" precision="I64">
					<dim>1</dim>
				</port>
			</input>
			<output>
				<port id="2" precision="I64">
					<dim>3</dim>
				</port>
			</output>
		</layer>
		<layer id="269" name="__module.model.layers.0.self_attn/aten::view/Reshape_3" type="Reshape" version="opset1">
			<data special_zero="false" />
			<input>
				<port id="0" precision="FP32">
					<dim>-1</dim>
					<dim>-1</dim>
					<dim>32</dim>
					<dim>64</dim>
				</port>
				<port id="1" precision="I64">
					<dim>3</dim>
				</port>
			</input>
			<output>
				<port id="2" precision="FP32" names="429">
					<dim>-1</dim>
					<dim>-1</dim>
					<dim>-1</dim>
				</port>
			</output>
		</layer>
		<layer id="270" name="self.model.layers.0.self_attn.o_proj.weight" type="Const" version="opset1">
			<data element_type="u4" shape="2048, 16, 128" offset="68625320" size="2097152" />
			<output>
				<port id="0" precision="U4">
					<dim>2048</dim>
					<dim>16</dim>
					<dim>128</dim>
				</port>
			</output>
		</layer>
		<layer id="271" name="Convert_62213" type="Convert" version="opset1">
			<data destination_type="f16" />
			<input>
				<port id="0" precision="U4">
					<dim>2048</dim>
					<dim>16</dim>
					<dim>128</dim>
				</port>
			</input>
			<output>
				<port id="1" precision="FP16">
					<dim>2048</dim>
					<dim>16</dim>
					<dim>128</dim>
				</port>
			</output>
		</layer>
		<layer id="272" name="self.model.layers.0.self_attn.o_proj.weight/zero_point" type="Const" version="opset1">
			<data element_type="u4" shape="2048, 16, 1" offset="70722472" size="16384" />
			<output>
				<port id="0" precision="U4">
					<dim>2048</dim>
					<dim>16</dim>
					<dim>1</dim>
				</port>
			</output>
		</layer>
		<layer id="273" name="Convert_62215" type="Convert" version="opset1">
			<data destination_type="f16" />
			<input>
				<port id="0" precision="U4">
					<dim>2048</dim>
					<dim>16</dim>
					<dim>1</dim>
				</port>
			</input>
			<output>
				<port id="1" precision="FP16">
					<dim>2048</dim>
					<dim>16</dim>
					<dim>1</dim>
				</port>
			</output>
		</layer>
		<layer id="274" name="self.model.layers.0.self_attn.o_proj.weight/zero_point/subtract" type="Subtract" version="opset1">
			<data auto_broadcast="numpy" />
			<input>
				<port id="0" precision="FP16">
					<dim>2048</dim>
					<dim>16</dim>
					<dim>128</dim>
				</port>
				<port id="1" precision="FP16">
					<dim>2048</dim>
					<dim>16</dim>
					<dim>1</dim>
				</port>
			</input>
			<output>
				<port id="2" precision="FP16">
					<dim>2048</dim>
					<dim>16</dim>
					<dim>128</dim>
				</port>
			</output>
		</layer>
		<layer id="275" name="self.model.layers.0.self_attn.o_proj.weight/scale" type="Const" version="opset1">
			<data element_type="f16" shape="2048, 16, 1" offset="70738856" size="65536" />
			<output>
				<port id="0" precision="FP16">
					<dim>2048</dim>
					<dim>16</dim>
					<dim>1</dim>
				</port>
			</output>
		</layer>
		<layer id="276" name="self.model.layers.0.self_attn.o_proj.weight/fq_weights_1" type="Multiply" version="opset1">
			<data auto_broadcast="numpy" />
			<input>
				<port id="0" precision="FP16">
					<dim>2048</dim>
					<dim>16</dim>
					<dim>128</dim>
				</port>
				<port id="1" precision="FP16">
					<dim>2048</dim>
					<dim>16</dim>
					<dim>1</dim>
				</port>
			</input>
			<output>
				<port id="2" precision="FP16">
					<dim>2048</dim>
					<dim>16</dim>
					<dim>128</dim>
				</port>
			</output>
		</layer>
		<layer id="277" name="Constant_62220" type="Const" version="opset1">
			<data element_type="i32" shape="2" offset="67827504" size="8" />
			<output>
				<port id="0" precision="I32">
					<dim>2</dim>
				</port>
			</output>
		</layer>
		<layer id="278" name="Reshape_62221" type="Reshape" version="opset1">
			<data special_zero="false" />
			<input>
				<port id="0" precision="FP16">
					<dim>2048</dim>
					<dim>16</dim>
					<dim>128</dim>
				</port>
				<port id="1" precision="I32">
					<dim>2</dim>
				</port>
			</input>
			<output>
				<port id="2" precision="FP16">
					<dim>2048</dim>
					<dim>2048</dim>
				</port>
			</output>
		</layer>
		<layer id="279" name="__module.model.layers.0.self_attn.o_proj/ov_ext::linear/ConvertLike" type="Convert" version="opset1">
			<data destination_type="f32" />
			<rt_info>
				<attribute name="decompression" version="0" />
			</rt_info>
			<input>
				<port id="0" precision="FP16">
					<dim>2048</dim>
					<dim>2048</dim>
				</port>
			</input>
			<output>
				<port id="1" precision="FP32">
					<dim>2048</dim>
					<dim>2048</dim>
				</port>
			</output>
		</layer>
		<layer id="280" name="__module.model.layers.0.self_attn.o_proj/ov_ext::linear/MatMul" type="MatMul" version="opset1">
			<data transpose_a="false" transpose_b="true" />
			<input>
				<port id="0" precision="FP32">
					<dim>-1</dim>
					<dim>-1</dim>
					<dim>-1</dim>
				</port>
				<port id="1" precision="FP32">
					<dim>2048</dim>
					<dim>2048</dim>
				</port>
			</input>
			<output>
				<port id="2" precision="FP32" names="431,433,hidden_states.17">
					<dim>-1</dim>
					<dim>-1</dim>
					<dim>2048</dim>
				</port>
			</output>
		</layer>
		<layer id="281" name="__module.model.layers.0/aten::add/Add" type="Add" version="opset1">
			<data auto_broadcast="numpy" />
			<input>
				<port id="0" precision="FP32">
					<dim>-1</dim>
					<dim>-1</dim>
					<dim>2048</dim>
				</port>
				<port id="1" precision="FP32">
					<dim>-1</dim>
					<dim>-1</dim>
					<dim>2048</dim>
				</port>
			</input>
			<output>
				<port id="2" precision="FP32" names="436,438,449,hidden_states.19,hidden_states.21">
					<dim>-1</dim>
					<dim>-1</dim>
					<dim>2048</dim>
				</port>
			</output>
		</layer>
		<layer id="282" name="Constant_41428" type="Const" version="opset1">
			<data element_type="f32" shape="1, 1, 2048" offset="70804392" size="8192" />
			<output>
				<port id="0" precision="FP32">
					<dim>1</dim>
					<dim>1</dim>
					<dim>2048</dim>
				</port>
			</output>
		</layer>
		<layer id="283" name="Constant_41427" type="Const" version="opset1">
			<data element_type="f32" shape="1, 1, 1" offset="65648412" size="4" />
			<output>
				<port id="0" precision="FP32">
					<dim>1</dim>
					<dim>1</dim>
					<dim>1</dim>
				</port>
			</output>
		</layer>
		<layer id="284" name="Constant_41425" type="Const" version="opset1">
			<data element_type="f32" shape="1, 1, 1" offset="65648416" size="4" />
			<output>
				<port id="0" precision="FP32">
					<dim>1</dim>
					<dim>1</dim>
					<dim>1</dim>
				</port>
			</output>
		</layer>
		<layer id="285" name="__module.model.layers.0.post_attention_layernorm/aten::pow/Power" type="Power" version="opset1">
			<data auto_broadcast="numpy" />
			<input>
				<port id="0" precision="FP32">
					<dim>-1</dim>
					<dim>-1</dim>
					<dim>2048</dim>
				</port>
				<port id="1" precision="FP32">
					<dim>1</dim>
					<dim>1</dim>
					<dim>1</dim>
				</port>
			</input>
			<output>
				<port id="2" precision="FP32" names="439">
					<dim>-1</dim>
					<dim>-1</dim>
					<dim>2048</dim>
				</port>
			</output>
		</layer>
		<layer id="286" name="Constant_1546" type="Const" version="opset1">
			<data element_type="i64" shape="1" offset="65648420" size="8" />
			<output>
				<port id="0" precision="I64" names="440">
					<dim>1</dim>
				</port>
			</output>
		</layer>
		<layer id="287" name="__module.model.layers.0.post_attention_layernorm/aten::mean/ReduceMean" type="ReduceMean" version="opset1">
			<data keep_dims="true" />
			<input>
				<port id="0" precision="FP32">
					<dim>-1</dim>
					<dim>-1</dim>
					<dim>2048</dim>
				</port>
				<port id="1" precision="I64">
					<dim>1</dim>
				</port>
			</input>
			<output>
				<port id="2" precision="FP32" names="441,variance.3">
					<dim>-1</dim>
					<dim>-1</dim>
					<dim>1</dim>
				</port>
			</output>
		</layer>
		<layer id="288" name="Constant_41426" type="Const" version="opset1">
			<data element_type="f32" shape="1, 1, 1" offset="65648428" size="4" />
			<output>
				<port id="0" precision="FP32">
					<dim>1</dim>
					<dim>1</dim>
					<dim>1</dim>
				</port>
			</output>
		</layer>
		<layer id="289" name="__module.model.layers.0.post_attention_layernorm/aten::add/Add" type="Add" version="opset1">
			<data auto_broadcast="numpy" />
			<input>
				<port id="0" precision="FP32">
					<dim>-1</dim>
					<dim>-1</dim>
					<dim>1</dim>
				</port>
				<port id="1" precision="FP32">
					<dim>1</dim>
					<dim>1</dim>
					<dim>1</dim>
				</port>
			</input>
			<output>
				<port id="2" precision="FP32" names="442">
					<dim>-1</dim>
					<dim>-1</dim>
					<dim>1</dim>
				</port>
			</output>
		</layer>
		<layer id="290" name="__module.model.layers.0.post_attention_layernorm/aten::rsqrt/Sqrt" type="Sqrt" version="opset1">
			<input>
				<port id="0" precision="FP32">
					<dim>-1</dim>
					<dim>-1</dim>
					<dim>1</dim>
				</port>
			</input>
			<output>
				<port id="1" precision="FP32">
					<dim>-1</dim>
					<dim>-1</dim>
					<dim>1</dim>
				</port>
			</output>
		</layer>
		<layer id="291" name="__module.model.layers.0.post_attention_layernorm/aten::rsqrt/Divide" type="Divide" version="opset1">
			<data auto_broadcast="numpy" m_pythondiv="true" />
			<input>
				<port id="0" precision="FP32">
					<dim>1</dim>
					<dim>1</dim>
					<dim>1</dim>
				</port>
				<port id="1" precision="FP32">
					<dim>-1</dim>
					<dim>-1</dim>
					<dim>1</dim>
				</port>
			</input>
			<output>
				<port id="2" precision="FP32" names="443">
					<dim>-1</dim>
					<dim>-1</dim>
					<dim>1</dim>
				</port>
			</output>
		</layer>
		<layer id="292" name="__module.model.layers.0.post_attention_layernorm/aten::mul/Multiply" type="Multiply" version="opset1">
			<data auto_broadcast="numpy" />
			<input>
				<port id="0" precision="FP32">
					<dim>-1</dim>
					<dim>-1</dim>
					<dim>2048</dim>
				</port>
				<port id="1" precision="FP32">
					<dim>-1</dim>
					<dim>-1</dim>
					<dim>1</dim>
				</port>
			</input>
			<output>
				<port id="2" precision="FP32" names="444,445,hidden_states.23,hidden_states.25">
					<dim>-1</dim>
					<dim>-1</dim>
					<dim>2048</dim>
				</port>
			</output>
		</layer>
		<layer id="293" name="__module.model.layers.0.post_attention_layernorm/aten::mul/Multiply_1" type="Multiply" version="opset1">
			<data auto_broadcast="numpy" />
			<input>
				<port id="0" precision="FP32">
					<dim>1</dim>
					<dim>1</dim>
					<dim>2048</dim>
				</port>
				<port id="1" precision="FP32">
					<dim>-1</dim>
					<dim>-1</dim>
					<dim>2048</dim>
				</port>
			</input>
			<output>
				<port id="2" precision="FP32" names="446,448">
					<dim>-1</dim>
					<dim>-1</dim>
					<dim>2048</dim>
				</port>
			</output>
		</layer>
		<layer id="294" name="self.model.layers.0.mlp.gate_proj.weight" type="Const" version="opset1">
			<data element_type="u4" shape="5632, 16, 128" offset="70812584" size="5767168" />
			<output>
				<port id="0" precision="U4">
					<dim>5632</dim>
					<dim>16</dim>
					<dim>128</dim>
				</port>
			</output>
		</layer>
		<layer id="295" name="Convert_61553" type="Convert" version="opset1">
			<data destination_type="f16" />
			<input>
				<port id="0" precision="U4">
					<dim>5632</dim>
					<dim>16</dim>
					<dim>128</dim>
				</port>
			</input>
			<output>
				<port id="1" precision="FP16">
					<dim>5632</dim>
					<dim>16</dim>
					<dim>128</dim>
				</port>
			</output>
		</layer>
		<layer id="296" name="self.model.layers.0.mlp.gate_proj.weight/zero_point" type="Const" version="opset1">
			<data element_type="u4" shape="5632, 16, 1" offset="76579752" size="45056" />
			<output>
				<port id="0" precision="U4">
					<dim>5632</dim>
					<dim>16</dim>
					<dim>1</dim>
				</port>
			</output>
		</layer>
		<layer id="297" name="Convert_61555" type="Convert" version="opset1">
			<data destination_type="f16" />
			<input>
				<port id="0" precision="U4">
					<dim>5632</dim>
					<dim>16</dim>
					<dim>1</dim>
				</port>
			</input>
			<output>
				<port id="1" precision="FP16">
					<dim>5632</dim>
					<dim>16</dim>
					<dim>1</dim>
				</port>
			</output>
		</layer>
		<layer id="298" name="self.model.layers.0.mlp.gate_proj.weight/zero_point/subtract" type="Subtract" version="opset1">
			<data auto_broadcast="numpy" />
			<input>
				<port id="0" precision="FP16">
					<dim>5632</dim>
					<dim>16</dim>
					<dim>128</dim>
				</port>
				<port id="1" precision="FP16">
					<dim>5632</dim>
					<dim>16</dim>
					<dim>1</dim>
				</port>
			</input>
			<output>
				<port id="2" precision="FP16">
					<dim>5632</dim>
					<dim>16</dim>
					<dim>128</dim>
				</port>
			</output>
		</layer>
		<layer id="299" name="self.model.layers.0.mlp.gate_proj.weight/scale" type="Const" version="opset1">
			<data element_type="f16" shape="5632, 16, 1" offset="76624808" size="180224" />
			<output>
				<port id="0" precision="FP16">
					<dim>5632</dim>
					<dim>16</dim>
					<dim>1</dim>
				</port>
			</output>
		</layer>
		<layer id="300" name="self.model.layers.0.mlp.gate_proj.weight/fq_weights_1" type="Multiply" version="opset1">
			<data auto_broadcast="numpy" />
			<input>
				<port id="0" precision="FP16">
					<dim>5632</dim>
					<dim>16</dim>
					<dim>128</dim>
				</port>
				<port id="1" precision="FP16">
					<dim>5632</dim>
					<dim>16</dim>
					<dim>1</dim>
				</port>
			</input>
			<output>
				<port id="2" precision="FP16">
					<dim>5632</dim>
					<dim>16</dim>
					<dim>128</dim>
				</port>
			</output>
		</layer>
		<layer id="301" name="Constant_61560" type="Const" version="opset1">
			<data element_type="i32" shape="2" offset="76805032" size="8" />
			<output>
				<port id="0" precision="I32">
					<dim>2</dim>
				</port>
			</output>
		</layer>
		<layer id="302" name="Reshape_61561" type="Reshape" version="opset1">
			<data special_zero="false" />
			<input>
				<port id="0" precision="FP16">
					<dim>5632</dim>
					<dim>16</dim>
					<dim>128</dim>
				</port>
				<port id="1" precision="I32">
					<dim>2</dim>
				</port>
			</input>
			<output>
				<port id="2" precision="FP16">
					<dim>5632</dim>
					<dim>2048</dim>
				</port>
			</output>
		</layer>
		<layer id="303" name="__module.model.layers.0.mlp.gate_proj/ov_ext::linear/ConvertLike" type="Convert" version="opset1">
			<data destination_type="f32" />
			<rt_info>
				<attribute name="decompression" version="0" />
			</rt_info>
			<input>
				<port id="0" precision="FP16">
					<dim>5632</dim>
					<dim>2048</dim>
				</port>
			</input>
			<output>
				<port id="1" precision="FP32">
					<dim>5632</dim>
					<dim>2048</dim>
				</port>
			</output>
		</layer>
		<layer id="304" name="__module.model.layers.0.mlp.gate_proj/ov_ext::linear/MatMul" type="MatMul" version="opset1">
			<data transpose_a="false" transpose_b="true" />
			<input>
				<port id="0" precision="FP32">
					<dim>-1</dim>
					<dim>-1</dim>
					<dim>2048</dim>
				</port>
				<port id="1" precision="FP32">
					<dim>5632</dim>
					<dim>2048</dim>
				</port>
			</input>
			<output>
				<port id="2" precision="FP32" names="454,input.1">
					<dim>-1</dim>
					<dim>-1</dim>
					<dim>5632</dim>
				</port>
			</output>
		</layer>
		<layer id="305" name="__module.model.layers.0.mlp.act_fn/aten::silu/Swish" type="Swish" version="opset4">
			<input>
				<port id="0" precision="FP32">
					<dim>-1</dim>
					<dim>-1</dim>
					<dim>5632</dim>
				</port>
			</input>
			<output>
				<port id="1" precision="FP32" names="455">
					<dim>-1</dim>
					<dim>-1</dim>
					<dim>5632</dim>
				</port>
			</output>
		</layer>
		<layer id="306" name="self.model.layers.0.mlp.up_proj.weight" type="Const" version="opset1">
			<data element_type="u8" shape="5632, 2048" offset="76805040" size="11534336" />
			<output>
				<port id="0" precision="U8">
					<dim>5632</dim>
					<dim>2048</dim>
				</port>
			</output>
		</layer>
		<layer id="307" name="Convert_61544" type="Convert" version="opset1">
			<data destination_type="f16" />
			<input>
				<port id="0" precision="U8">
					<dim>5632</dim>
					<dim>2048</dim>
				</port>
			</input>
			<output>
				<port id="1" precision="FP16">
					<dim>5632</dim>
					<dim>2048</dim>
				</port>
			</output>
		</layer>
		<layer id="308" name="self.model.layers.0.mlp.up_proj.weight/zero_point" type="Const" version="opset1">
			<data element_type="u8" shape="5632, 1" offset="88339376" size="5632" />
			<output>
				<port id="0" precision="U8">
					<dim>5632</dim>
					<dim>1</dim>
				</port>
			</output>
		</layer>
		<layer id="309" name="Convert_61547" type="Convert" version="opset1">
			<data destination_type="f16" />
			<input>
				<port id="0" precision="U8">
					<dim>5632</dim>
					<dim>1</dim>
				</port>
			</input>
			<output>
				<port id="1" precision="FP16">
					<dim>5632</dim>
					<dim>1</dim>
				</port>
			</output>
		</layer>
		<layer id="310" name="self.model.layers.0.mlp.up_proj.weight/zero_point/subtract" type="Subtract" version="opset1">
			<data auto_broadcast="numpy" />
			<input>
				<port id="0" precision="FP16">
					<dim>5632</dim>
					<dim>2048</dim>
				</port>
				<port id="1" precision="FP16">
					<dim>5632</dim>
					<dim>1</dim>
				</port>
			</input>
			<output>
				<port id="2" precision="FP16">
					<dim>5632</dim>
					<dim>2048</dim>
				</port>
			</output>
		</layer>
		<layer id="311" name="self.model.layers.0.mlp.up_proj.weight/scale" type="Const" version="opset1">
			<data element_type="f16" shape="5632, 1" offset="88345008" size="11264" />
			<output>
				<port id="0" precision="FP16">
					<dim>5632</dim>
					<dim>1</dim>
				</port>
			</output>
		</layer>
		<layer id="312" name="self.model.layers.0.mlp.up_proj.weight/fq_weights_1" type="Multiply" version="opset1">
			<data auto_broadcast="numpy" />
			<input>
				<port id="0" precision="FP16">
					<dim>5632</dim>
					<dim>2048</dim>
				</port>
				<port id="1" precision="FP16">
					<dim>5632</dim>
					<dim>1</dim>
				</port>
			</input>
			<output>
				<port id="2" precision="FP16">
					<dim>5632</dim>
					<dim>2048</dim>
				</port>
			</output>
		</layer>
		<layer id="313" name="__module.model.layers.0.mlp.up_proj/ov_ext::linear/ConvertLike" type="Convert" version="opset1">
			<data destination_type="f32" />
			<rt_info>
				<attribute name="decompression" version="0" />
			</rt_info>
			<input>
				<port id="0" precision="FP16">
					<dim>5632</dim>
					<dim>2048</dim>
				</port>
			</input>
			<output>
				<port id="1" precision="FP32">
					<dim>5632</dim>
					<dim>2048</dim>
				</port>
			</output>
		</layer>
		<layer id="314" name="__module.model.layers.0.mlp.up_proj/ov_ext::linear/MatMul" type="MatMul" version="opset1">
			<data transpose_a="false" transpose_b="true" />
			<input>
				<port id="0" precision="FP32">
					<dim>-1</dim>
					<dim>-1</dim>
					<dim>2048</dim>
				</port>
				<port id="1" precision="FP32">
					<dim>5632</dim>
					<dim>2048</dim>
				</port>
			</input>
			<output>
				<port id="2" precision="FP32" names="457">
					<dim>-1</dim>
					<dim>-1</dim>
					<dim>5632</dim>
				</port>
			</output>
		</layer>
		<layer id="315" name="__module.model.layers.0.mlp/aten::mul/Multiply" type="Multiply" version="opset1">
			<data auto_broadcast="numpy" />
			<input>
				<port id="0" precision="FP32">
					<dim>-1</dim>
					<dim>-1</dim>
					<dim>5632</dim>
				</port>
				<port id="1" precision="FP32">
					<dim>-1</dim>
					<dim>-1</dim>
					<dim>5632</dim>
				</port>
			</input>
			<output>
				<port id="2" precision="FP32" names="458">
					<dim>-1</dim>
					<dim>-1</dim>
					<dim>5632</dim>
				</port>
			</output>
		</layer>
		<layer id="316" name="self.model.layers.0.mlp.down_proj.weight" type="Const" version="opset1">
			<data element_type="u4" shape="2048, 44, 128" offset="88356272" size="5767168" />
			<output>
				<port id="0" precision="U4">
					<dim>2048</dim>
					<dim>44</dim>
					<dim>128</dim>
				</port>
			</output>
		</layer>
		<layer id="317" name="Convert_61563" type="Convert" version="opset1">
			<data destination_type="f16" />
			<input>
				<port id="0" precision="U4">
					<dim>2048</dim>
					<dim>44</dim>
					<dim>128</dim>
				</port>
			</input>
			<output>
				<port id="1" precision="FP16">
					<dim>2048</dim>
					<dim>44</dim>
					<dim>128</dim>
				</port>
			</output>
		</layer>
		<layer id="318" name="self.model.layers.0.mlp.down_proj.weight/zero_point" type="Const" version="opset1">
			<data element_type="u4" shape="2048, 44, 1" offset="94123440" size="45056" />
			<output>
				<port id="0" precision="U4">
					<dim>2048</dim>
					<dim>44</dim>
					<dim>1</dim>
				</port>
			</output>
		</layer>
		<layer id="319" name="Convert_61565" type="Convert" version="opset1">
			<data destination_type="f16" />
			<input>
				<port id="0" precision="U4">
					<dim>2048</dim>
					<dim>44</dim>
					<dim>1</dim>
				</port>
			</input>
			<output>
				<port id="1" precision="FP16">
					<dim>2048</dim>
					<dim>44</dim>
					<dim>1</dim>
				</port>
			</output>
		</layer>
		<layer id="320" name="self.model.layers.0.mlp.down_proj.weight/zero_point/subtract" type="Subtract" version="opset1">
			<data auto_broadcast="numpy" />
			<input>
				<port id="0" precision="FP16">
					<dim>2048</dim>
					<dim>44</dim>
					<dim>128</dim>
				</port>
				<port id="1" precision="FP16">
					<dim>2048</dim>
					<dim>44</dim>
					<dim>1</dim>
				</port>
			</input>
			<output>
				<port id="2" precision="FP16">
					<dim>2048</dim>
					<dim>44</dim>
					<dim>128</dim>
				</port>
			</output>
		</layer>
		<layer id="321" name="self.model.layers.0.mlp.down_proj.weight/scale" type="Const" version="opset1">
			<data element_type="f16" shape="2048, 44, 1" offset="94168496" size="180224" />
			<output>
				<port id="0" precision="FP16">
					<dim>2048</dim>
					<dim>44</dim>
					<dim>1</dim>
				</port>
			</output>
		</layer>
		<layer id="322" name="self.model.layers.0.mlp.down_proj.weight/fq_weights_1" type="Multiply" version="opset1">
			<data auto_broadcast="numpy" />
			<input>
				<port id="0" precision="FP16">
					<dim>2048</dim>
					<dim>44</dim>
					<dim>128</dim>
				</port>
				<port id="1" precision="FP16">
					<dim>2048</dim>
					<dim>44</dim>
					<dim>1</dim>
				</port>
			</input>
			<output>
				<port id="2" precision="FP16">
					<dim>2048</dim>
					<dim>44</dim>
					<dim>128</dim>
				</port>
			</output>
		</layer>
		<layer id="323" name="Constant_61570" type="Const" version="opset1">
			<data element_type="i32" shape="2" offset="94348720" size="8" />
			<output>
				<port id="0" precision="I32">
					<dim>2</dim>
				</port>
			</output>
		</layer>
		<layer id="324" name="Reshape_61571" type="Reshape" version="opset1">
			<data special_zero="false" />
			<input>
				<port id="0" precision="FP16">
					<dim>2048</dim>
					<dim>44</dim>
					<dim>128</dim>
				</port>
				<port id="1" precision="I32">
					<dim>2</dim>
				</port>
			</input>
			<output>
				<port id="2" precision="FP16">
					<dim>2048</dim>
					<dim>5632</dim>
				</port>
			</output>
		</layer>
		<layer id="325" name="__module.model.layers.0.mlp.down_proj/ov_ext::linear/ConvertLike" type="Convert" version="opset1">
			<data destination_type="f32" />
			<rt_info>
				<attribute name="decompression" version="0" />
			</rt_info>
			<input>
				<port id="0" precision="FP16">
					<dim>2048</dim>
					<dim>5632</dim>
				</port>
			</input>
			<output>
				<port id="1" precision="FP32">
					<dim>2048</dim>
					<dim>5632</dim>
				</port>
			</output>
		</layer>
		<layer id="326" name="__module.model.layers.0.mlp.down_proj/ov_ext::linear/MatMul" type="MatMul" version="opset1">
			<data transpose_a="false" transpose_b="true" />
			<input>
				<port id="0" precision="FP32">
					<dim>-1</dim>
					<dim>-1</dim>
					<dim>5632</dim>
				</port>
				<port id="1" precision="FP32">
					<dim>2048</dim>
					<dim>5632</dim>
				</port>
			</input>
			<output>
				<port id="2" precision="FP32" names="460,hidden_states.27">
					<dim>-1</dim>
					<dim>-1</dim>
					<dim>2048</dim>
				</port>
			</output>
		</layer>
		<layer id="327" name="__module.model.layers.0/aten::add/Add_1" type="Add" version="opset1">
			<data auto_broadcast="numpy" />
			<input>
				<port id="0" precision="FP32">
					<dim>-1</dim>
					<dim>-1</dim>
					<dim>2048</dim>
				</port>
				<port id="1" precision="FP32">
					<dim>-1</dim>
					<dim>-1</dim>
					<dim>2048</dim>
				</port>
			</input>
			<output>
				<port id="2" precision="FP32" names="461,463,471,482,hidden_states.29,hidden_states.31">
					<dim>-1</dim>
					<dim>-1</dim>
					<dim>2048</dim>
				</port>
			</output>
		</layer>
		<layer id="328" name="Constant_41432" type="Const" version="opset1">
			<data element_type="f32" shape="1, 1, 2048" offset="94348728" size="8192" />
			<output>
				<port id="0" precision="FP32">
					<dim>1</dim>
					<dim>1</dim>
					<dim>2048</dim>
				</port>
			</output>
		</layer>
		<layer id="329" name="Constant_41431" type="Const" version="opset1">
			<data element_type="f32" shape="1, 1, 1" offset="65648412" size="4" />
			<output>
				<port id="0" precision="FP32">
					<dim>1</dim>
					<dim>1</dim>
					<dim>1</dim>
				</port>
			</output>
		</layer>
		<layer id="330" name="Constant_41429" type="Const" version="opset1">
			<data element_type="f32" shape="1, 1, 1" offset="65648416" size="4" />
			<output>
				<port id="0" precision="FP32">
					<dim>1</dim>
					<dim>1</dim>
					<dim>1</dim>
				</port>
			</output>
		</layer>
		<layer id="331" name="__module.model.layers.1.input_layernorm/aten::pow/Power" type="Power" version="opset1">
			<data auto_broadcast="numpy" />
			<input>
				<port id="0" precision="FP32">
					<dim>-1</dim>
					<dim>-1</dim>
					<dim>2048</dim>
				</port>
				<port id="1" precision="FP32">
					<dim>1</dim>
					<dim>1</dim>
					<dim>1</dim>
				</port>
			</input>
			<output>
				<port id="2" precision="FP32" names="472">
					<dim>-1</dim>
					<dim>-1</dim>
					<dim>2048</dim>
				</port>
			</output>
		</layer>
		<layer id="332" name="Constant_1620" type="Const" version="opset1">
			<data element_type="i64" shape="1" offset="65648420" size="8" />
			<output>
				<port id="0" precision="I64" names="473">
					<dim>1</dim>
				</port>
			</output>
		</layer>
		<layer id="333" name="__module.model.layers.1.input_layernorm/aten::mean/ReduceMean" type="ReduceMean" version="opset1">
			<data keep_dims="true" />
			<input>
				<port id="0" precision="FP32">
					<dim>-1</dim>
					<dim>-1</dim>
					<dim>2048</dim>
				</port>
				<port id="1" precision="I64">
					<dim>1</dim>
				</port>
			</input>
			<output>
				<port id="2" precision="FP32" names="474,variance.5">
					<dim>-1</dim>
					<dim>-1</dim>
					<dim>1</dim>
				</port>
			</output>
		</layer>
		<layer id="334" name="Constant_41430" type="Const" version="opset1">
			<data element_type="f32" shape="1, 1, 1" offset="65648428" size="4" />
			<output>
				<port id="0" precision="FP32">
					<dim>1</dim>
					<dim>1</dim>
					<dim>1</dim>
				</port>
			</output>
		</layer>
		<layer id="335" name="__module.model.layers.1.input_layernorm/aten::add/Add" type="Add" version="opset1">
			<data auto_broadcast="numpy" />
			<input>
				<port id="0" precision="FP32">
					<dim>-1</dim>
					<dim>-1</dim>
					<dim>1</dim>
				</port>
				<port id="1" precision="FP32">
					<dim>1</dim>
					<dim>1</dim>
					<dim>1</dim>
				</port>
			</input>
			<output>
				<port id="2" precision="FP32" names="475">
					<dim>-1</dim>
					<dim>-1</dim>
					<dim>1</dim>
				</port>
			</output>
		</layer>
		<layer id="336" name="__module.model.layers.1.input_layernorm/aten::rsqrt/Sqrt" type="Sqrt" version="opset1">
			<input>
				<port id="0" precision="FP32">
					<dim>-1</dim>
					<dim>-1</dim>
					<dim>1</dim>
				</port>
			</input>
			<output>
				<port id="1" precision="FP32">
					<dim>-1</dim>
					<dim>-1</dim>
					<dim>1</dim>
				</port>
			</output>
		</layer>
		<layer id="337" name="__module.model.layers.1.input_layernorm/aten::rsqrt/Divide" type="Divide" version="opset1">
			<data auto_broadcast="numpy" m_pythondiv="true" />
			<input>
				<port id="0" precision="FP32">
					<dim>1</dim>
					<dim>1</dim>
					<dim>1</dim>
				</port>
				<port id="1" precision="FP32">
					<dim>-1</dim>
					<dim>-1</dim>
					<dim>1</dim>
				</port>
			</input>
			<output>
				<port id="2" precision="FP32" names="476">
					<dim>-1</dim>
					<dim>-1</dim>
					<dim>1</dim>
				</port>
			</output>
		</layer>
		<layer id="338" name="__module.model.layers.1.input_layernorm/aten::mul/Multiply" type="Multiply" version="opset1">
			<data auto_broadcast="numpy" />
			<input>
				<port id="0" precision="FP32">
					<dim>-1</dim>
					<dim>-1</dim>
					<dim>2048</dim>
				</port>
				<port id="1" precision="FP32">
					<dim>-1</dim>
					<dim>-1</dim>
					<dim>1</dim>
				</port>
			</input>
			<output>
				<port id="2" precision="FP32" names="477,478,hidden_states.33,hidden_states.35">
					<dim>-1</dim>
					<dim>-1</dim>
					<dim>2048</dim>
				</port>
			</output>
		</layer>
		<layer id="339" name="__module.model.layers.1.input_layernorm/aten::mul/Multiply_1" type="Multiply" version="opset1">
			<data auto_broadcast="numpy" />
			<input>
				<port id="0" precision="FP32">
					<dim>1</dim>
					<dim>1</dim>
					<dim>2048</dim>
				</port>
				<port id="1" precision="FP32">
					<dim>-1</dim>
					<dim>-1</dim>
					<dim>2048</dim>
				</port>
			</input>
			<output>
				<port id="2" precision="FP32" names="479,481,hidden_states.37">
					<dim>-1</dim>
					<dim>-1</dim>
					<dim>2048</dim>
				</port>
			</output>
		</layer>
		<layer id="340" name="self.model.layers.1.self_attn.q_proj.weight" type="Const" version="opset1">
			<data element_type="u4" shape="2048, 16, 128" offset="94356920" size="2097152" />
			<output>
				<port id="0" precision="U4">
					<dim>2048</dim>
					<dim>16</dim>
					<dim>128</dim>
				</port>
			</output>
		</layer>
		<layer id="341" name="Convert_62223" type="Convert" version="opset1">
			<data destination_type="f16" />
			<input>
				<port id="0" precision="U4">
					<dim>2048</dim>
					<dim>16</dim>
					<dim>128</dim>
				</port>
			</input>
			<output>
				<port id="1" precision="FP16">
					<dim>2048</dim>
					<dim>16</dim>
					<dim>128</dim>
				</port>
			</output>
		</layer>
		<layer id="342" name="self.model.layers.1.self_attn.q_proj.weight/zero_point" type="Const" version="opset1">
			<data element_type="u4" shape="2048, 16, 1" offset="96454072" size="16384" />
			<output>
				<port id="0" precision="U4">
					<dim>2048</dim>
					<dim>16</dim>
					<dim>1</dim>
				</port>
			</output>
		</layer>
		<layer id="343" name="Convert_62225" type="Convert" version="opset1">
			<data destination_type="f16" />
			<input>
				<port id="0" precision="U4">
					<dim>2048</dim>
					<dim>16</dim>
					<dim>1</dim>
				</port>
			</input>
			<output>
				<port id="1" precision="FP16">
					<dim>2048</dim>
					<dim>16</dim>
					<dim>1</dim>
				</port>
			</output>
		</layer>
		<layer id="344" name="self.model.layers.1.self_attn.q_proj.weight/zero_point/subtract" type="Subtract" version="opset1">
			<data auto_broadcast="numpy" />
			<input>
				<port id="0" precision="FP16">
					<dim>2048</dim>
					<dim>16</dim>
					<dim>128</dim>
				</port>
				<port id="1" precision="FP16">
					<dim>2048</dim>
					<dim>16</dim>
					<dim>1</dim>
				</port>
			</input>
			<output>
				<port id="2" precision="FP16">
					<dim>2048</dim>
					<dim>16</dim>
					<dim>128</dim>
				</port>
			</output>
		</layer>
		<layer id="345" name="self.model.layers.1.self_attn.q_proj.weight/scale" type="Const" version="opset1">
			<data element_type="f16" shape="2048, 16, 1" offset="96470456" size="65536" />
			<output>
				<port id="0" precision="FP16">
					<dim>2048</dim>
					<dim>16</dim>
					<dim>1</dim>
				</port>
			</output>
		</layer>
		<layer id="346" name="self.model.layers.1.self_attn.q_proj.weight/fq_weights_1" type="Multiply" version="opset1">
			<data auto_broadcast="numpy" />
			<input>
				<port id="0" precision="FP16">
					<dim>2048</dim>
					<dim>16</dim>
					<dim>128</dim>
				</port>
				<port id="1" precision="FP16">
					<dim>2048</dim>
					<dim>16</dim>
					<dim>1</dim>
				</port>
			</input>
			<output>
				<port id="2" precision="FP16">
					<dim>2048</dim>
					<dim>16</dim>
					<dim>128</dim>
				</port>
			</output>
		</layer>
		<layer id="347" name="Constant_62230" type="Const" version="opset1">
			<data element_type="i32" shape="2" offset="67827504" size="8" />
			<output>
				<port id="0" precision="I32">
					<dim>2</dim>
				</port>
			</output>
		</layer>
		<layer id="348" name="Reshape_62231" type="Reshape" version="opset1">
			<data special_zero="false" />
			<input>
				<port id="0" precision="FP16">
					<dim>2048</dim>
					<dim>16</dim>
					<dim>128</dim>
				</port>
				<port id="1" precision="I32">
					<dim>2</dim>
				</port>
			</input>
			<output>
				<port id="2" precision="FP16">
					<dim>2048</dim>
					<dim>2048</dim>
				</port>
			</output>
		</layer>
		<layer id="349" name="__module.model.layers.1.self_attn.q_proj/ov_ext::linear/ConvertLike" type="Convert" version="opset1">
			<data destination_type="f32" />
			<rt_info>
				<attribute name="decompression" version="0" />
			</rt_info>
			<input>
				<port id="0" precision="FP16">
					<dim>2048</dim>
					<dim>2048</dim>
				</port>
			</input>
			<output>
				<port id="1" precision="FP32">
					<dim>2048</dim>
					<dim>2048</dim>
				</port>
			</output>
		</layer>
		<layer id="350" name="__module.model.layers.1.self_attn.q_proj/ov_ext::linear/MatMul" type="MatMul" version="opset1">
			<data transpose_a="false" transpose_b="true" />
			<input>
				<port id="0" precision="FP32">
					<dim>-1</dim>
					<dim>-1</dim>
					<dim>2048</dim>
				</port>
				<port id="1" precision="FP32">
					<dim>2048</dim>
					<dim>2048</dim>
				</port>
			</input>
			<output>
				<port id="2" precision="FP32" names="490,query_states.3">
					<dim>-1</dim>
					<dim>-1</dim>
					<dim>2048</dim>
				</port>
			</output>
		</layer>
		<layer id="351" name="Constant_47975" type="Const" version="opset1">
			<data element_type="i64" shape="4" offset="67827512" size="32" />
			<output>
				<port id="0" precision="I64">
					<dim>4</dim>
				</port>
			</output>
		</layer>
		<layer id="352" name="__module.model.layers.1.self_attn/aten::view/Reshape" type="Reshape" version="opset1">
			<data special_zero="true" />
			<input>
				<port id="0" precision="FP32">
					<dim>-1</dim>
					<dim>-1</dim>
					<dim>2048</dim>
				</port>
				<port id="1" precision="I64">
					<dim>4</dim>
				</port>
			</input>
			<output>
				<port id="2" precision="FP32" names="496">
					<dim>-1</dim>
					<dim>-1</dim>
					<dim>32</dim>
					<dim>64</dim>
				</port>
			</output>
		</layer>
		<layer id="353" name="__module.model.layers.1.self_attn/aten::transpose/Constant" type="Const" version="opset1">
			<data element_type="i32" shape="4" offset="67827544" size="16" />
			<output>
				<port id="0" precision="I32">
					<dim>4</dim>
				</port>
			</output>
		</layer>
		<layer id="354" name="__module.model.layers.1.self_attn/aten::transpose/Transpose" type="Transpose" version="opset1">
			<input>
				<port id="0" precision="FP32">
					<dim>-1</dim>
					<dim>-1</dim>
					<dim>32</dim>
					<dim>64</dim>
				</port>
				<port id="1" precision="I32">
					<dim>4</dim>
				</port>
			</input>
			<output>
				<port id="2" precision="FP32" names="497,q.3">
					<dim>-1</dim>
					<dim>32</dim>
					<dim>-1</dim>
					<dim>64</dim>
				</port>
			</output>
		</layer>
		<layer id="355" name="__module.model.layers.1.self_attn/aten::mul/Multiply" type="Multiply" version="opset1">
			<data auto_broadcast="numpy" />
			<input>
				<port id="0" precision="FP32">
					<dim>-1</dim>
					<dim>32</dim>
					<dim>-1</dim>
					<dim>64</dim>
				</port>
				<port id="1" precision="FP32">
					<dim>-1</dim>
					<dim>1</dim>
					<dim>-1</dim>
					<dim>64</dim>
				</port>
			</input>
			<output>
				<port id="2" precision="FP32" names="506">
					<dim>-1</dim>
					<dim>32</dim>
					<dim>-1</dim>
					<dim>64</dim>
				</port>
			</output>
		</layer>
		<layer id="356" name="Constant_2017" type="Const" version="opset1">
			<data element_type="i64" shape="1" offset="67827708" size="8" />
			<output>
				<port id="0" precision="I64">
					<dim>1</dim>
				</port>
			</output>
		</layer>
		<layer id="357" name="Constant_2019" type="Const" version="opset1">
			<data element_type="i64" shape="1" offset="67827716" size="8" />
			<output>
				<port id="0" precision="I64">
					<dim>1</dim>
				</port>
			</output>
		</layer>
		<layer id="358" name="Constant_2021" type="Const" version="opset1">
			<data element_type="i64" shape="1" offset="67827688" size="8" />
			<output>
				<port id="0" precision="I64">
					<dim>1</dim>
				</port>
			</output>
		</layer>
		<layer id="359" name="__module.model.layers.1.self_attn/aten::slice/Slice" type="Slice" version="opset8">
			<input>
				<port id="0" precision="FP32">
					<dim>-1</dim>
					<dim>32</dim>
					<dim>-1</dim>
					<dim>64</dim>
				</port>
				<port id="1" precision="I64">
					<dim>1</dim>
				</port>
				<port id="2" precision="I64">
					<dim>1</dim>
				</port>
				<port id="3" precision="I64">
					<dim>1</dim>
				</port>
				<port id="4" precision="I64">
					<dim>1</dim>
				</port>
			</input>
			<output>
				<port id="5" precision="FP32" names="516,x2.5">
					<dim>-1</dim>
					<dim>32</dim>
					<dim>-1</dim>
					<dim>32</dim>
				</port>
			</output>
		</layer>
		<layer id="360" name="Constant_41433" type="Const" version="opset1">
			<data element_type="f32" shape="1, 1, 1, 1" offset="67827732" size="4" />
			<output>
				<port id="0" precision="FP32">
					<dim>1</dim>
					<dim>1</dim>
					<dim>1</dim>
					<dim>1</dim>
				</port>
			</output>
		</layer>
		<layer id="361" name="__module.model.layers.1.self_attn/aten::neg/Multiply" type="Multiply" version="opset1">
			<data auto_broadcast="numpy" />
			<input>
				<port id="0" precision="FP32">
					<dim>-1</dim>
					<dim>32</dim>
					<dim>-1</dim>
					<dim>32</dim>
				</port>
				<port id="1" precision="FP32">
					<dim>1</dim>
					<dim>1</dim>
					<dim>1</dim>
					<dim>1</dim>
				</port>
			</input>
			<output>
				<port id="2" precision="FP32" names="517">
					<dim>-1</dim>
					<dim>32</dim>
					<dim>-1</dim>
					<dim>32</dim>
				</port>
			</output>
		</layer>
		<layer id="362" name="Constant_1914" type="Const" version="opset1">
			<data element_type="i64" shape="1" offset="12" size="8" />
			<output>
				<port id="0" precision="I64">
					<dim>1</dim>
				</port>
			</output>
		</layer>
		<layer id="363" name="Constant_1958" type="Const" version="opset1">
			<data element_type="i64" shape="1" offset="67827708" size="8" />
			<output>
				<port id="0" precision="I64">
					<dim>1</dim>
				</port>
			</output>
		</layer>
		<layer id="364" name="Constant_1960" type="Const" version="opset1">
			<data element_type="i64" shape="1" offset="67827688" size="8" />
			<output>
				<port id="0" precision="I64">
					<dim>1</dim>
				</port>
			</output>
		</layer>
		<layer id="365" name="__module.model.layers.1.self_attn/aten::slice/Slice_1" type="Slice" version="opset8">
			<input>
				<port id="0" precision="FP32">
					<dim>-1</dim>
					<dim>32</dim>
					<dim>-1</dim>
					<dim>64</dim>
				</port>
				<port id="1" precision="I64">
					<dim>1</dim>
				</port>
				<port id="2" precision="I64">
					<dim>1</dim>
				</port>
				<port id="3" precision="I64">
					<dim>1</dim>
				</port>
				<port id="4" precision="I64">
					<dim>1</dim>
				</port>
			</input>
			<output>
				<port id="5" precision="FP32" names="511">
					<dim>-1</dim>
					<dim>32</dim>
					<dim>-1</dim>
					<dim>32</dim>
				</port>
			</output>
		</layer>
		<layer id="366" name="__module.model.layers.1.self_attn/aten::cat/Concat" type="Concat" version="opset1">
			<data axis="-1" />
			<input>
				<port id="0" precision="FP32">
					<dim>-1</dim>
					<dim>32</dim>
					<dim>-1</dim>
					<dim>32</dim>
				</port>
				<port id="1" precision="FP32">
					<dim>-1</dim>
					<dim>32</dim>
					<dim>-1</dim>
					<dim>32</dim>
				</port>
			</input>
			<output>
				<port id="2" precision="FP32" names="519">
					<dim>-1</dim>
					<dim>32</dim>
					<dim>-1</dim>
					<dim>64</dim>
				</port>
			</output>
		</layer>
		<layer id="367" name="__module.model.layers.1.self_attn/aten::mul/Multiply_1" type="Multiply" version="opset1">
			<data auto_broadcast="numpy" />
			<input>
				<port id="0" precision="FP32">
					<dim>-1</dim>
					<dim>32</dim>
					<dim>-1</dim>
					<dim>64</dim>
				</port>
				<port id="1" precision="FP32">
					<dim>-1</dim>
					<dim>1</dim>
					<dim>-1</dim>
					<dim>64</dim>
				</port>
			</input>
			<output>
				<port id="2" precision="FP32" names="520">
					<dim>-1</dim>
					<dim>32</dim>
					<dim>-1</dim>
					<dim>64</dim>
				</port>
			</output>
		</layer>
		<layer id="368" name="__module.model.layers.1.self_attn/aten::add/Add" type="Add" version="opset1">
			<data auto_broadcast="numpy" />
			<input>
				<port id="0" precision="FP32">
					<dim>-1</dim>
					<dim>32</dim>
					<dim>-1</dim>
					<dim>64</dim>
				</port>
				<port id="1" precision="FP32">
					<dim>-1</dim>
					<dim>32</dim>
					<dim>-1</dim>
					<dim>64</dim>
				</port>
			</input>
			<output>
				<port id="2" precision="FP32" names="521">
					<dim>-1</dim>
					<dim>32</dim>
					<dim>-1</dim>
					<dim>64</dim>
				</port>
			</output>
		</layer>
		<layer id="369" name="Constant_50351" type="Const" version="opset1">
			<data element_type="f32" shape="" offset="0" size="4" />
			<output>
				<port id="0" precision="FP32" />
			</output>
		</layer>
		<layer id="370" name="Constant_50344" type="Const" version="opset1">
			<data element_type="i64" shape="1" offset="4" size="8" />
			<output>
				<port id="0" precision="I64">
					<dim>1</dim>
				</port>
			</output>
		</layer>
		<layer id="371" name="Constant_50346" type="Const" version="opset1">
			<data element_type="i64" shape="1" offset="12" size="8" />
			<output>
				<port id="0" precision="I64">
					<dim>1</dim>
				</port>
			</output>
		</layer>
		<layer id="372" name="Constant_50348" type="Const" version="opset1">
			<data element_type="i64" shape="1" offset="20" size="8" />
			<output>
				<port id="0" precision="I64">
					<dim>1</dim>
				</port>
			</output>
		</layer>
		<layer id="373" name="Concat_50349" type="Concat" version="opset1">
			<data axis="0" />
			<input>
				<port id="0" precision="I64">
					<dim>1</dim>
				</port>
				<port id="1" precision="I64">
					<dim>1</dim>
				</port>
				<port id="2" precision="I64">
					<dim>1</dim>
				</port>
				<port id="3" precision="I64">
					<dim>1</dim>
				</port>
			</input>
			<output>
				<port id="4" precision="I64">
					<dim>4</dim>
				</port>
			</output>
		</layer>
		<layer id="374" name="Broadcast_50352" type="Broadcast" version="opset3">
			<data mode="numpy" />
			<input>
				<port id="0" precision="FP32" />
				<port id="1" precision="I64">
					<dim>4</dim>
				</port>
			</input>
			<output>
				<port id="2" precision="FP32">
					<dim>-1</dim>
					<dim>4</dim>
					<dim>0</dim>
					<dim>64</dim>
				</port>
			</output>
		</layer>
		<layer id="375" name="ReadValue_49831" type="ReadValue" version="opset6">
			<data variable_id="past_key_values.1.keypresent.1.key" variable_type="f32" variable_shape="?,4,?,64" />
			<input>
				<port id="0" precision="FP32">
					<dim>-1</dim>
					<dim>4</dim>
					<dim>0</dim>
					<dim>64</dim>
				</port>
			</input>
			<output>
				<port id="1" precision="FP32" names="past_key_values.1.key">
					<dim>-1</dim>
					<dim>4</dim>
					<dim>-1</dim>
					<dim>64</dim>
				</port>
			</output>
		</layer>
		<layer id="376" name="Constant_49328" type="Const" version="opset1">
			<data element_type="i32" shape="" offset="0" size="4" />
			<output>
				<port id="0" precision="I32" />
			</output>
		</layer>
		<layer id="377" name="Gather_49329" type="Gather" version="opset8">
			<data batch_dims="0" />
			<input>
				<port id="0" precision="FP32">
					<dim>-1</dim>
					<dim>4</dim>
					<dim>-1</dim>
					<dim>64</dim>
				</port>
				<port id="1" precision="I32">
					<dim>-1</dim>
				</port>
				<port id="2" precision="I32" />
			</input>
			<output>
				<port id="3" precision="FP32">
					<dim>-1</dim>
					<dim>4</dim>
					<dim>-1</dim>
					<dim>64</dim>
				</port>
			</output>
		</layer>
…
		<edge from-layer="3366" from-port="2" to-layer="3367" to-port="1" />
		<edge from-layer="3367" from-port="2" to-layer="3368" to-port="1" />
		<edge from-layer="3368" from-port="2" to-layer="3881" to-port="0" />
		<edge from-layer="3368" from-port="2" to-layer="3369" to-port="0" />
		<edge from-layer="3369" from-port="2" to-layer="3370" to-port="0" />
		<edge from-layer="3370" from-port="2" to-layer="3372" to-port="0" />
		<edge from-layer="3371" from-port="0" to-layer="3372" to-port="1" />
		<edge from-layer="3372" from-port="2" to-layer="3400" to-port="1" />
		<edge from-layer="3373" from-port="0" to-layer="3378" to-port="0" />
		<edge from-layer="3374" from-port="0" to-layer="3377" to-port="1" />
		<edge from-layer="3375" from-port="0" to-layer="3377" to-port="2" />
		<edge from-layer="3376" from-port="0" to-layer="3377" to-port="3" />
		<edge from-layer="3377" from-port="4" to-layer="3378" to-port="1" />
		<edge from-layer="3378" from-port="2" to-layer="3379" to-port="0" />
		<edge from-layer="3379" from-port="1" to-layer="3381" to-port="0" />
		<edge from-layer="3380" from-port="0" to-layer="3381" to-port="2" />
		<edge from-layer="3381" from-port="3" to-layer="3395" to-port="0" />
		<edge from-layer="3382" from-port="0" to-layer="3383" to-port="0" />
		<edge from-layer="3383" from-port="1" to-layer="3386" to-port="0" />
		<edge from-layer="3384" from-port="0" to-layer="3385" to-port="0" />
		<edge from-layer="3385" from-port="1" to-layer="3386" to-port="1" />
		<edge from-layer="3386" from-port="2" to-layer="3388" to-port="0" />
		<edge from-layer="3387" from-port="0" to-layer="3388" to-port="1" />
		<edge from-layer="3388" from-port="2" to-layer="3389" to-port="0" />
		<edge from-layer="3389" from-port="1" to-layer="3390" to-port="1" />
		<edge from-layer="3390" from-port="2" to-layer="3392" to-port="0" />
		<edge from-layer="3391" from-port="0" to-layer="3392" to-port="1" />
		<edge from-layer="3392" from-port="2" to-layer="3394" to-port="0" />
		<edge from-layer="3393" from-port="0" to-layer="3394" to-port="1" />
		<edge from-layer="3394" from-port="2" to-layer="3395" to-port="1" />
		<edge from-layer="3395" from-port="2" to-layer="3880" to-port="0" />
		<edge from-layer="3395" from-port="2" to-layer="3396" to-port="0" />
		<edge from-layer="3396" from-port="2" to-layer="3397" to-port="0" />
		<edge from-layer="3397" from-port="2" to-layer="3399" to-port="0" />
		<edge from-layer="3398" from-port="0" to-layer="3399" to-port="1" />
		<edge from-layer="3399" from-port="2" to-layer="3400" to-port="2" />
		<edge from-layer="3400" from-port="4" to-layer="3402" to-port="0" />
		<edge from-layer="3401" from-port="0" to-layer="3402" to-port="1" />
		<edge from-layer="3402" from-port="2" to-layer="3403" to-port="0" />
		<edge from-layer="3403" from-port="2" to-layer="3414" to-port="0" />
		<edge from-layer="3404" from-port="0" to-layer="3405" to-port="0" />
		<edge from-layer="3405" from-port="1" to-layer="3408" to-port="0" />
		<edge from-layer="3406" from-port="0" to-layer="3407" to-port="0" />
		<edge from-layer="3407" from-port="1" to-layer="3408" to-port="1" />
		<edge from-layer="3408" from-port="2" to-layer="3410" to-port="0" />
		<edge from-layer="3409" from-port="0" to-layer="3410" to-port="1" />
		<edge from-layer="3410" from-port="2" to-layer="3412" to-port="0" />
		<edge from-layer="3411" from-port="0" to-layer="3412" to-port="1" />
		<edge from-layer="3412" from-port="2" to-layer="3413" to-port="0" />
		<edge from-layer="3413" from-port="1" to-layer="3414" to-port="1" />
		<edge from-layer="3414" from-port="2" to-layer="3415" to-port="1" />
		<edge from-layer="3415" from-port="2" to-layer="3426" to-port="0" />
		<edge from-layer="3415" from-port="2" to-layer="3461" to-port="0" />
		<edge from-layer="3415" from-port="2" to-layer="3419" to-port="0" />
		<edge from-layer="3416" from-port="0" to-layer="3427" to-port="0" />
		<edge from-layer="3417" from-port="0" to-layer="3425" to-port="0" />
		<edge from-layer="3418" from-port="0" to-layer="3419" to-port="1" />
		<edge from-layer="3419" from-port="2" to-layer="3421" to-port="0" />
		<edge from-layer="3420" from-port="0" to-layer="3421" to-port="1" />
		<edge from-layer="3421" from-port="2" to-layer="3423" to-port="0" />
		<edge from-layer="3422" from-port="0" to-layer="3423" to-port="1" />
		<edge from-layer="3423" from-port="2" to-layer="3424" to-port="0" />
		<edge from-layer="3424" from-port="1" to-layer="3425" to-port="1" />
		<edge from-layer="3425" from-port="2" to-layer="3426" to-port="1" />
		<edge from-layer="3426" from-port="2" to-layer="3427" to-port="1" />
		<edge from-layer="3427" from-port="2" to-layer="3436" to-port="0" />
		<edge from-layer="3427" from-port="2" to-layer="3448" to-port="0" />
		<edge from-layer="3428" from-port="0" to-layer="3429" to-port="0" />
		<edge from-layer="3429" from-port="1" to-layer="3432" to-port="0" />
		<edge from-layer="3430" from-port="0" to-layer="3431" to-port="0" />
		<edge from-layer="3431" from-port="1" to-layer="3432" to-port="1" />
		<edge from-layer="3432" from-port="2" to-layer="3434" to-port="0" />
		<edge from-layer="3433" from-port="0" to-layer="3434" to-port="1" />
		<edge from-layer="3434" from-port="2" to-layer="3435" to-port="0" />
		<edge from-layer="3435" from-port="1" to-layer="3436" to-port="1" />
		<edge from-layer="3436" from-port="2" to-layer="3437" to-port="0" />
		<edge from-layer="3437" from-port="1" to-layer="3449" to-port="0" />
		<edge from-layer="3438" from-port="0" to-layer="3439" to-port="0" />
		<edge from-layer="3439" from-port="1" to-layer="3442" to-port="0" />
		<edge from-layer="3440" from-port="0" to-layer="3441" to-port="0" />
		<edge from-layer="3441" from-port="1" to-layer="3442" to-port="1" />
		<edge from-layer="3442" from-port="2" to-layer="3444" to-port="0" />
		<edge from-layer="3443" from-port="0" to-layer="3444" to-port="1" />
		<edge from-layer="3444" from-port="2" to-layer="3446" to-port="0" />
		<edge from-layer="3445" from-port="0" to-layer="3446" to-port="1" />
		<edge from-layer="3446" from-port="2" to-layer="3447" to-port="0" />
		<edge from-layer="3447" from-port="1" to-layer="3448" to-port="1" />
		<edge from-layer="3448" from-port="2" to-layer="3449" to-port="1" />
		<edge from-layer="3449" from-port="2" to-layer="3460" to-port="0" />
		<edge from-layer="3450" from-port="0" to-layer="3451" to-port="0" />
		<edge from-layer="3451" from-port="1" to-layer="3454" to-port="0" />
		<edge from-layer="3452" from-port="0" to-layer="3453" to-port="0" />
		<edge from-layer="3453" from-port="1" to-layer="3454" to-port="1" />
		<edge from-layer="3454" from-port="2" to-layer="3456" to-port="0" />
		<edge from-layer="3455" from-port="0" to-layer="3456" to-port="1" />
		<edge from-layer="3456" from-port="2" to-layer="3458" to-port="0" />
		<edge from-layer="3457" from-port="0" to-layer="3458" to-port="1" />
		<edge from-layer="3458" from-port="2" to-layer="3459" to-port="0" />
		<edge from-layer="3459" from-port="1" to-layer="3460" to-port="1" />
		<edge from-layer="3460" from-port="2" to-layer="3461" to-port="1" />
		<edge from-layer="3461" from-port="2" to-layer="3472" to-port="0" />
		<edge from-layer="3461" from-port="2" to-layer="3465" to-port="0" />
		<edge from-layer="3461" from-port="2" to-layer="3588" to-port="0" />
		<edge from-layer="3462" from-port="0" to-layer="3473" to-port="0" />
		<edge from-layer="3463" from-port="0" to-layer="3471" to-port="0" />
		<edge from-layer="3464" from-port="0" to-layer="3465" to-port="1" />
		<edge from-layer="3465" from-port="2" to-layer="3467" to-port="0" />
		<edge from-layer="3466" from-port="0" to-layer="3467" to-port="1" />
		<edge from-layer="3467" from-port="2" to-layer="3469" to-port="0" />
		<edge from-layer="3468" from-port="0" to-layer="3469" to-port="1" />
		<edge from-layer="3469" from-port="2" to-layer="3470" to-port="0" />
		<edge from-layer="3470" from-port="1" to-layer="3471" to-port="1" />
		<edge from-layer="3471" from-port="2" to-layer="3472" to-port="1" />
		<edge from-layer="3472" from-port="2" to-layer="3473" to-port="1" />
		<edge from-layer="3473" from-port="2" to-layer="3484" to-port="0" />
		<edge from-layer="3473" from-port="2" to-layer="3563" to-port="0" />
		<edge from-layer="3473" from-port="2" to-layer="3522" to-port="0" />
		<edge from-layer="3474" from-port="0" to-layer="3475" to-port="0" />
		<edge from-layer="3475" from-port="1" to-layer="3478" to-port="0" />
		<edge from-layer="3476" from-port="0" to-layer="3477" to-port="0" />
		<edge from-layer="3477" from-port="1" to-layer="3478" to-port="1" />
		<edge from-layer="3478" from-port="2" to-layer="3480" to-port="0" />
		<edge from-layer="3479" from-port="0" to-layer="3480" to-port="1" />
		<edge from-layer="3480" from-port="2" to-layer="3482" to-port="0" />
		<edge from-layer="3481" from-port="0" to-layer="3482" to-port="1" />
		<edge from-layer="3482" from-port="2" to-layer="3483" to-port="0" />
		<edge from-layer="3483" from-port="1" to-layer="3484" to-port="1" />
		<edge from-layer="3484" from-port="2" to-layer="3486" to-port="0" />
		<edge from-layer="3485" from-port="0" to-layer="3486" to-port="1" />
		<edge from-layer="3486" from-port="2" to-layer="3488" to-port="0" />
		<edge from-layer="3487" from-port="0" to-layer="3488" to-port="1" />
		<edge from-layer="3488" from-port="2" to-layer="3499" to-port="0" />
		<edge from-layer="3488" from-port="2" to-layer="3489" to-port="0" />
		<edge from-layer="3488" from-port="2" to-layer="3493" to-port="0" />
		<edge from-layer="3489" from-port="2" to-layer="3502" to-port="0" />
		<edge from-layer="3490" from-port="0" to-layer="3493" to-port="1" />
		<edge from-layer="3491" from-port="0" to-layer="3493" to-port="2" />
		<edge from-layer="3492" from-port="0" to-layer="3493" to-port="3" />
		<edge from-layer="3493" from-port="5" to-layer="3495" to-port="0" />
		<edge from-layer="3494" from-port="0" to-layer="3495" to-port="1" />
		<edge from-layer="3495" from-port="2" to-layer="3500" to-port="0" />
		<edge from-layer="3496" from-port="0" to-layer="3499" to-port="1" />
		<edge from-layer="3497" from-port="0" to-layer="3499" to-port="2" />
		<edge from-layer="3498" from-port="0" to-layer="3499" to-port="3" />
		<edge from-layer="3499" from-port="5" to-layer="3500" to-port="1" />
		<edge from-layer="3500" from-port="2" to-layer="3501" to-port="0" />
		<edge from-layer="3501" from-port="2" to-layer="3502" to-port="1" />
		<edge from-layer="3502" from-port="2" to-layer="3573" to-port="0" />
		<edge from-layer="3503" from-port="0" to-layer="3508" to-port="0" />
		<edge from-layer="3504" from-port="0" to-layer="3507" to-port="1" />
		<edge from-layer="3505" from-port="0" to-layer="3507" to-port="2" />
		<edge from-layer="3506" from-port="0" to-layer="3507" to-port="3" />
		<edge from-layer="3507" from-port="4" to-layer="3508" to-port="1" />
		<edge from-layer="3508" from-port="2" to-layer="3509" to-port="0" />
		<edge from-layer="3509" from-port="1" to-layer="3511" to-port="0" />
		<edge from-layer="3510" from-port="0" to-layer="3511" to-port="2" />
		<edge from-layer="3511" from-port="3" to-layer="3541" to-port="0" />
		<edge from-layer="3512" from-port="0" to-layer="3513" to-port="0" />
		<edge from-layer="3513" from-port="1" to-layer="3516" to-port="0" />
		<edge from-layer="3514" from-port="0" to-layer="3515" to-port="0" />
		<edge from-layer="3515" from-port="1" to-layer="3516" to-port="1" />
		<edge from-layer="3516" from-port="2" to-layer="3518" to-port="0" />
		<edge from-layer="3517" from-port="0" to-layer="3518" to-port="1" />
		<edge from-layer="3518" from-port="2" to-layer="3520" to-port="0" />
		<edge from-layer="3519" from-port="0" to-layer="3520" to-port="1" />
		<edge from-layer="3520" from-port="2" to-layer="3521" to-port="0" />
		<edge from-layer="3521" from-port="1" to-layer="3522" to-port="1" />
		<edge from-layer="3522" from-port="2" to-layer="3524" to-port="0" />
		<edge from-layer="3523" from-port="0" to-layer="3524" to-port="1" />
		<edge from-layer="3524" from-port="2" to-layer="3526" to-port="0" />
		<edge from-layer="3525" from-port="0" to-layer="3526" to-port="1" />
		<edge from-layer="3526" from-port="2" to-layer="3527" to-port="0" />
		<edge from-layer="3526" from-port="2" to-layer="3531" to-port="0" />
		<edge from-layer="3526" from-port="2" to-layer="3537" to-port="0" />
		<edge from-layer="3527" from-port="2" to-layer="3540" to-port="0" />
		<edge from-layer="3528" from-port="0" to-layer="3531" to-port="1" />
		<edge from-layer="3529" from-port="0" to-layer="3531" to-port="2" />
		<edge from-layer="3530" from-port="0" to-layer="3531" to-port="3" />
		<edge from-layer="3531" from-port="5" to-layer="3533" to-port="0" />
		<edge from-layer="3532" from-port="0" to-layer="3533" to-port="1" />
		<edge from-layer="3533" from-port="2" to-layer="3538" to-port="0" />
		<edge from-layer="3534" from-port="0" to-layer="3537" to-port="1" />
		<edge from-layer="3535" from-port="0" to-layer="3537" to-port="2" />
		<edge from-layer="3536" from-port="0" to-layer="3537" to-port="3" />
		<edge from-layer="3537" from-port="5" to-layer="3538" to-port="1" />
		<edge from-layer="3538" from-port="2" to-layer="3539" to-port="0" />
		<edge from-layer="3539" from-port="2" to-layer="3540" to-port="1" />
		<edge from-layer="3540" from-port="2" to-layer="3541" to-port="1" />
		<edge from-layer="3541" from-port="2" to-layer="3542" to-port="0" />
		<edge from-layer="3541" from-port="2" to-layer="3879" to-port="0" />
		<edge from-layer="3542" from-port="2" to-layer="3543" to-port="0" />
		<edge from-layer="3543" from-port="2" to-layer="3545" to-port="0" />
		<edge from-layer="3544" from-port="0" to-layer="3545" to-port="1" />
		<edge from-layer="3545" from-port="2" to-layer="3573" to-port="1" />
		<edge from-layer="3546" from-port="0" to-layer="3551" to-port="0" />
		<edge from-layer="3547" from-port="0" to-layer="3550" to-port="1" />
		<edge from-layer="3548" from-port="0" to-layer="3550" to-port="2" />
		<edge from-layer="3549" from-port="0" to-layer="3550" to-port="3" />
		<edge from-layer="3550" from-port="4" to-layer="3551" to-port="1" />
		<edge from-layer="3551" from-port="2" to-layer="3552" to-port="0" />
		<edge from-layer="3552" from-port="1" to-layer="3554" to-port="0" />
		<edge from-layer="3553" from-port="0" to-layer="3554" to-port="2" />
		<edge from-layer="3554" from-port="3" to-layer="3568" to-port="0" />
		<edge from-layer="3555" from-port="0" to-layer="3556" to-port="0" />
		<edge from-layer="3556" from-port="1" to-layer="3559" to-port="0" />
		<edge from-layer="3557" from-port="0" to-layer="3558" to-port="0" />
		<edge from-layer="3558" from-port="1" to-layer="3559" to-port="1" />
		<edge from-layer="3559" from-port="2" to-layer="3561" to-port="0" />
		<edge from-layer="3560" from-port="0" to-layer="3561" to-port="1" />
		<edge from-layer="3561" from-port="2" to-layer="3562" to-port="0" />
		<edge from-layer="3562" from-port="1" to-layer="3563" to-port="1" />
		<edge from-layer="3563" from-port="2" to-layer="3565" to-port="0" />
		<edge from-layer="3564" from-port="0" to-layer="3565" to-port="1" />
		<edge from-layer="3565" from-port="2" to-layer="3567" to-port="0" />
		<edge from-layer="3566" from-port="0" to-layer="3567" to-port="1" />
		<edge from-layer="3567" from-port="2" to-layer="3568" to-port="1" />
		<edge from-layer="3568" from-port="2" to-layer="3878" to-port="0" />
		<edge from-layer="3568" from-port="2" to-layer="3569" to-port="0" />
		<edge from-layer="3569" from-port="2" to-layer="3570" to-port="0" />
		<edge from-layer="3570" from-port="2" to-layer="3572" to-port="0" />
		<edge from-layer="3571" from-port="0" to-layer="3572" to-port="1" />
		<edge from-layer="3572" from-port="2" to-layer="3573" to-port="2" />
		<edge from-layer="3573" from-port="4" to-layer="3575" to-port="0" />
		<edge from-layer="3574" from-port="0" to-layer="3575" to-port="1" />
		<edge from-layer="3575" from-port="2" to-layer="3576" to-port="0" />
		<edge from-layer="3576" from-port="2" to-layer="3587" to-port="0" />
		<edge from-layer="3577" from-port="0" to-layer="3578" to-port="0" />
		<edge from-layer="3578" from-port="1" to-layer="3581" to-port="0" />
		<edge from-layer="3579" from-port="0" to-layer="3580" to-port="0" />
		<edge from-layer="3580" from-port="1" to-layer="3581" to-port="1" />
		<edge from-layer="3581" from-port="2" to-layer="3583" to-port="0" />
		<edge from-layer="3582" from-port="0" to-layer="3583" to-port="1" />
		<edge from-layer="3583" from-port="2" to-layer="3585" to-port="0" />
		<edge from-layer="3584" from-port="0" to-layer="3585" to-port="1" />
		<edge from-layer="3585" from-port="2" to-layer="3586" to-port="0" />
		<edge from-layer="3586" from-port="1" to-layer="3587" to-port="1" />
		<edge from-layer="3587" from-port="2" to-layer="3588" to-port="1" />
		<edge from-layer="3588" from-port="2" to-layer="3592" to-port="0" />
		<edge from-layer="3588" from-port="2" to-layer="3634" to-port="0" />
		<edge from-layer="3588" from-port="2" to-layer="3599" to-port="0" />
		<edge from-layer="3589" from-port="0" to-layer="3600" to-port="0" />
		<edge from-layer="3590" from-port="0" to-layer="3598" to-port="0" />
		<edge from-layer="3591" from-port="0" to-layer="3592" to-port="1" />
		<edge from-layer="3592" from-port="2" to-layer="3594" to-port="0" />
		<edge from-layer="3593" from-port="0" to-layer="3594" to-port="1" />
		<edge from-layer="3594" from-port="2" to-layer="3596" to-port="0" />
		<edge from-layer="3595" from-port="0" to-layer="3596" to-port="1" />
		<edge from-layer="3596" from-port="2" to-layer="3597" to-port="0" />
		<edge from-layer="3597" from-port="1" to-layer="3598" to-port="1" />
		<edge from-layer="3598" from-port="2" to-layer="3599" to-port="1" />
		<edge from-layer="3599" from-port="2" to-layer="3600" to-port="1" />
		<edge from-layer="3600" from-port="2" to-layer="3621" to-port="0" />
		<edge from-layer="3600" from-port="2" to-layer="3611" to-port="0" />
		<edge from-layer="3601" from-port="0" to-layer="3602" to-port="0" />
		<edge from-layer="3602" from-port="1" to-layer="3605" to-port="0" />
		<edge from-layer="3603" from-port="0" to-layer="3604" to-port="0" />
		<edge from-layer="3604" from-port="1" to-layer="3605" to-port="1" />
		<edge from-layer="3605" from-port="2" to-layer="3607" to-port="0" />
		<edge from-layer="3606" from-port="0" to-layer="3607" to-port="1" />
		<edge from-layer="3607" from-port="2" to-layer="3609" to-port="0" />
		<edge from-layer="3608" from-port="0" to-layer="3609" to-port="1" />
		<edge from-layer="3609" from-port="2" to-layer="3610" to-port="0" />
		<edge from-layer="3610" from-port="1" to-layer="3611" to-port="1" />
		<edge from-layer="3611" from-port="2" to-layer="3612" to-port="0" />
		<edge from-layer="3612" from-port="1" to-layer="3622" to-port="0" />
		<edge from-layer="3613" from-port="0" to-layer="3614" to-port="0" />
		<edge from-layer="3614" from-port="1" to-layer="3617" to-port="0" />
		<edge from-layer="3615" from-port="0" to-layer="3616" to-port="0" />
		<edge from-layer="3616" from-port="1" to-layer="3617" to-port="1" />
		<edge from-layer="3617" from-port="2" to-layer="3619" to-port="0" />
		<edge from-layer="3618" from-port="0" to-layer="3619" to-port="1" />
		<edge from-layer="3619" from-port="2" to-layer="3620" to-port="0" />
		<edge from-layer="3620" from-port="1" to-layer="3621" to-port="1" />
		<edge from-layer="3621" from-port="2" to-layer="3622" to-port="1" />
		<edge from-layer="3622" from-port="2" to-layer="3633" to-port="0" />
		<edge from-layer="3623" from-port="0" to-layer="3624" to-port="0" />
		<edge from-layer="3624" from-port="1" to-layer="3627" to-port="0" />
		<edge from-layer="3625" from-port="0" to-layer="3626" to-port="0" />
		<edge from-layer="3626" from-port="1" to-layer="3627" to-port="1" />
		<edge from-layer="3627" from-port="2" to-layer="3629" to-port="0" />
		<edge from-layer="3628" from-port="0" to-layer="3629" to-port="1" />
		<edge from-layer="3629" from-port="2" to-layer="3631" to-port="0" />
		<edge from-layer="3630" from-port="0" to-layer="3631" to-port="1" />
		<edge from-layer="3631" from-port="2" to-layer="3632" to-port="0" />
		<edge from-layer="3632" from-port="1" to-layer="3633" to-port="1" />
		<edge from-layer="3633" from-port="2" to-layer="3634" to-port="1" />
		<edge from-layer="3634" from-port="2" to-layer="3761" to-port="0" />
		<edge from-layer="3634" from-port="2" to-layer="3645" to-port="0" />
		<edge from-layer="3634" from-port="2" to-layer="3638" to-port="0" />
		<edge from-layer="3635" from-port="0" to-layer="3646" to-port="0" />
		<edge from-layer="3636" from-port="0" to-layer="3644" to-port="0" />
		<edge from-layer="3637" from-port="0" to-layer="3638" to-port="1" />
		<edge from-layer="3638" from-port="2" to-layer="3640" to-port="0" />
		<edge from-layer="3639" from-port="0" to-layer="3640" to-port="1" />
		<edge from-layer="3640" from-port="2" to-layer="3642" to-port="0" />
		<edge from-layer="3641" from-port="0" to-layer="3642" to-port="1" />
		<edge from-layer="3642" from-port="2" to-layer="3643" to-port="0" />
		<edge from-layer="3643" from-port="1" to-layer="3644" to-port="1" />
		<edge from-layer="3644" from-port="2" to-layer="3645" to-port="1" />
		<edge from-layer="3645" from-port="2" to-layer="3646" to-port="1" />
		<edge from-layer="3646" from-port="2" to-layer="3695" to-port="0" />
		<edge from-layer="3646" from-port="2" to-layer="3657" to-port="0" />
		<edge from-layer="3646" from-port="2" to-layer="3736" to-port="0" />
		<edge from-layer="3647" from-port="0" to-layer="3648" to-port="0" />
		<edge from-layer="3648" from-port="1" to-layer="3651" to-port="0" />
		<edge from-layer="3649" from-port="0" to-layer="3650" to-port="0" />
		<edge from-layer="3650" from-port="1" to-layer="3651" to-port="1" />
		<edge from-layer="3651" from-port="2" to-layer="3653" to-port="0" />
		<edge from-layer="3652" from-port="0" to-layer="3653" to-port="1" />
		<edge from-layer="3653" from-port="2" to-layer="3655" to-port="0" />
		<edge from-layer="3654" from-port="0" to-layer="3655" to-port="1" />
		<edge from-layer="3655" from-port="2" to-layer="3656" to-port="0" />
		<edge from-layer="3656" from-port="1" to-layer="3657" to-port="1" />
		<edge from-layer="3657" from-port="2" to-layer="3659" to-port="0" />
		<edge from-layer="3658" from-port="0" to-layer="3659" to-port="1" />
		<edge from-layer="3659" from-port="2" to-layer="3661" to-port="0" />
		<edge from-layer="3660" from-port="0" to-layer="3661" to-port="1" />
		<edge from-layer="3661" from-port="2" to-layer="3672" to-port="0" />
		<edge from-layer="3661" from-port="2" to-layer="3666" to-port="0" />
		<edge from-layer="3661" from-port="2" to-layer="3662" to-port="0" />
		<edge from-layer="3662" from-port="2" to-layer="3675" to-port="0" />
		<edge from-layer="3663" from-port="0" to-layer="3666" to-port="1" />
		<edge from-layer="3664" from-port="0" to-layer="3666" to-port="2" />
		<edge from-layer="3665" from-port="0" to-layer="3666" to-port="3" />
		<edge from-layer="3666" from-port="5" to-layer="3668" to-port="0" />
		<edge from-layer="3667" from-port="0" to-layer="3668" to-port="1" />
		<edge from-layer="3668" from-port="2" to-layer="3673" to-port="0" />
		<edge from-layer="3669" from-port="0" to-layer="3672" to-port="1" />
		<edge from-layer="3670" from-port="0" to-layer="3672" to-port="2" />
		<edge from-layer="3671" from-port="0" to-layer="3672" to-port="3" />
		<edge from-layer="3672" from-port="5" to-layer="3673" to-port="1" />
		<edge from-layer="3673" from-port="2" to-layer="3674" to-port="0" />
		<edge from-layer="3674" from-port="2" to-layer="3675" to-port="1" />
		<edge from-layer="3675" from-port="2" to-layer="3746" to-port="0" />
		<edge from-layer="3676" from-port="0" to-layer="3681" to-port="0" />
		<edge from-layer="3677" from-port="0" to-layer="3680" to-port="1" />
		<edge from-layer="3678" from-port="0" to-layer="3680" to-port="2" />
		<edge from-layer="3679" from-port="0" to-layer="3680" to-port="3" />
		<edge from-layer="3680" from-port="4" to-layer="3681" to-port="1" />
		<edge from-layer="3681" from-port="2" to-layer="3682" to-port="0" />
		<edge from-layer="3682" from-port="1" to-layer="3684" to-port="0" />
		<edge from-layer="3683" from-port="0" to-layer="3684" to-port="2" />
		<edge from-layer="3684" from-port="3" to-layer="3714" to-port="0" />
		<edge from-layer="3685" from-port="0" to-layer="3686" to-port="0" />
		<edge from-layer="3686" from-port="1" to-layer="3689" to-port="0" />
		<edge from-layer="3687" from-port="0" to-layer="3688" to-port="0" />
		<edge from-layer="3688" from-port="1" to-layer="3689" to-port="1" />
		<edge from-layer="3689" from-port="2" to-layer="3691" to-port="0" />
		<edge from-layer="3690" from-port="0" to-layer="3691" to-port="1" />
		<edge from-layer="3691" from-port="2" to-layer="3693" to-port="0" />
		<edge from-layer="3692" from-port="0" to-layer="3693" to-port="1" />
		<edge from-layer="3693" from-port="2" to-layer="3694" to-port="0" />
		<edge from-layer="3694" from-port="1" to-layer="3695" to-port="1" />
		<edge from-layer="3695" from-port="2" to-layer="3697" to-port="0" />
		<edge from-layer="3696" from-port="0" to-layer="3697" to-port="1" />
		<edge from-layer="3697" from-port="2" to-layer="3699" to-port="0" />
		<edge from-layer="3698" from-port="0" to-layer="3699" to-port="1" />
		<edge from-layer="3699" from-port="2" to-layer="3700" to-port="0" />
		<edge from-layer="3699" from-port="2" to-layer="3704" to-port="0" />
		<edge from-layer="3699" from-port="2" to-layer="3710" to-port="0" />
		<edge from-layer="3700" from-port="2" to-layer="3713" to-port="0" />
		<edge from-layer="3701" from-port="0" to-layer="3704" to-port="1" />
		<edge from-layer="3702" from-port="0" to-layer="3704" to-port="2" />
		<edge from-layer="3703" from-port="0" to-layer="3704" to-port="3" />
		<edge from-layer="3704" from-port="5" to-layer="3706" to-port="0" />
		<edge from-layer="3705" from-port="0" to-layer="3706" to-port="1" />
		<edge from-layer="3706" from-port="2" to-layer="3711" to-port="0" />
		<edge from-layer="3707" from-port="0" to-layer="3710" to-port="1" />
		<edge from-layer="3708" from-port="0" to-layer="3710" to-port="2" />
		<edge from-layer="3709" from-port="0" to-layer="3710" to-port="3" />
		<edge from-layer="3710" from-port="5" to-layer="3711" to-port="1" />
		<edge from-layer="3711" from-port="2" to-layer="3712" to-port="0" />
		<edge from-layer="3712" from-port="2" to-layer="3713" to-port="1" />
		<edge from-layer="3713" from-port="2" to-layer="3714" to-port="1" />
		<edge from-layer="3714" from-port="2" to-layer="3875" to-port="0" />
		<edge from-layer="3714" from-port="2" to-layer="3715" to-port="0" />
		<edge from-layer="3715" from-port="2" to-layer="3716" to-port="0" />
		<edge from-layer="3716" from-port="2" to-layer="3718" to-port="0" />
		<edge from-layer="3717" from-port="0" to-layer="3718" to-port="1" />
		<edge from-layer="3718" from-port="2" to-layer="3746" to-port="1" />
		<edge from-layer="3719" from-port="0" to-layer="3724" to-port="0" />
		<edge from-layer="3720" from-port="0" to-layer="3723" to-port="1" />
		<edge from-layer="3721" from-port="0" to-layer="3723" to-port="2" />
		<edge from-layer="3722" from-port="0" to-layer="3723" to-port="3" />
		<edge from-layer="3723" from-port="4" to-layer="3724" to-port="1" />
		<edge from-layer="3724" from-port="2" to-layer="3725" to-port="0" />
		<edge from-layer="3725" from-port="1" to-layer="3727" to-port="0" />
		<edge from-layer="3726" from-port="0" to-layer="3727" to-port="2" />
		<edge from-layer="3727" from-port="3" to-layer="3741" to-port="0" />
		<edge from-layer="3728" from-port="0" to-layer="3729" to-port="0" />
		<edge from-layer="3729" from-port="1" to-layer="3732" to-port="0" />
		<edge from-layer="3730" from-port="0" to-layer="3731" to-port="0" />
		<edge from-layer="3731" from-port="1" to-layer="3732" to-port="1" />
		<edge from-layer="3732" from-port="2" to-layer="3734" to-port="0" />
		<edge from-layer="3733" from-port="0" to-layer="3734" to-port="1" />
		<edge from-layer="3734" from-port="2" to-layer="3735" to-port="0" />
		<edge from-layer="3735" from-port="1" to-layer="3736" to-port="1" />
		<edge from-layer="3736" from-port="2" to-layer="3738" to-port="0" />
		<edge from-layer="3737" from-port="0" to-layer="3738" to-port="1" />
		<edge from-layer="3738" from-port="2" to-layer="3740" to-port="0" />
		<edge from-layer="3739" from-port="0" to-layer="3740" to-port="1" />
		<edge from-layer="3740" from-port="2" to-layer="3741" to-port="1" />
		<edge from-layer="3741" from-port="2" to-layer="3742" to-port="0" />
		<edge from-layer="3741" from-port="2" to-layer="3874" to-port="0" />
		<edge from-layer="3742" from-port="2" to-layer="3743" to-port="0" />
		<edge from-layer="3743" from-port="2" to-layer="3745" to-port="0" />
		<edge from-layer="3744" from-port="0" to-layer="3745" to-port="1" />
		<edge from-layer="3745" from-port="2" to-layer="3746" to-port="2" />
		<edge from-layer="3746" from-port="4" to-layer="3748" to-port="0" />
		<edge from-layer="3747" from-port="0" to-layer="3748" to-port="1" />
		<edge from-layer="3748" from-port="2" to-layer="3749" to-port="0" />
		<edge from-layer="3749" from-port="2" to-layer="3760" to-port="0" />
		<edge from-layer="3750" from-port="0" to-layer="3751" to-port="0" />
		<edge from-layer="3751" from-port="1" to-layer="3754" to-port="0" />
		<edge from-layer="3752" from-port="0" to-layer="3753" to-port="0" />
		<edge from-layer="3753" from-port="1" to-layer="3754" to-port="1" />
		<edge from-layer="3754" from-port="2" to-layer="3756" to-port="0" />
		<edge from-layer="3755" from-port="0" to-layer="3756" to-port="1" />
		<edge from-layer="3756" from-port="2" to-layer="3758" to-port="0" />
		<edge from-layer="3757" from-port="0" to-layer="3758" to-port="1" />
		<edge from-layer="3758" from-port="2" to-layer="3759" to-port="0" />
		<edge from-layer="3759" from-port="1" to-layer="3760" to-port="1" />
		<edge from-layer="3760" from-port="2" to-layer="3761" to-port="1" />
		<edge from-layer="3761" from-port="2" to-layer="3765" to-port="0" />
		<edge from-layer="3761" from-port="2" to-layer="3807" to-port="0" />
		<edge from-layer="3761" from-port="2" to-layer="3772" to-port="0" />
		<edge from-layer="3762" from-port="0" to-layer="3773" to-port="0" />
		<edge from-layer="3763" from-port="0" to-layer="3771" to-port="0" />
		<edge from-layer="3764" from-port="0" to-layer="3765" to-port="1" />
		<edge from-layer="3765" from-port="2" to-layer="3767" to-port="0" />
		<edge from-layer="3766" from-port="0" to-layer="3767" to-port="1" />
		<edge from-layer="3767" from-port="2" to-layer="3769" to-port="0" />
		<edge from-layer="3768" from-port="0" to-layer="3769" to-port="1" />
		<edge from-layer="3769" from-port="2" to-layer="3770" to-port="0" />
		<edge from-layer="3770" from-port="1" to-layer="3771" to-port="1" />
		<edge from-layer="3771" from-port="2" to-layer="3772" to-port="1" />
		<edge from-layer="3772" from-port="2" to-layer="3773" to-port="1" />
		<edge from-layer="3773" from-port="2" to-layer="3794" to-port="0" />
		<edge from-layer="3773" from-port="2" to-layer="3784" to-port="0" />
		<edge from-layer="3774" from-port="0" to-layer="3775" to-port="0" />
		<edge from-layer="3775" from-port="1" to-layer="3778" to-port="0" />
		<edge from-layer="3776" from-port="0" to-layer="3777" to-port="0" />
		<edge from-layer="3777" from-port="1" to-layer="3778" to-port="1" />
		<edge from-layer="3778" from-port="2" to-layer="3780" to-port="0" />
		<edge from-layer="3779" from-port="0" to-layer="3780" to-port="1" />
		<edge from-layer="3780" from-port="2" to-layer="3782" to-port="0" />
		<edge from-layer="3781" from-port="0" to-layer="3782" to-port="1" />
		<edge from-layer="3782" from-port="2" to-layer="3783" to-port="0" />
		<edge from-layer="3783" from-port="1" to-layer="3784" to-port="1" />
		<edge from-layer="3784" from-port="2" to-layer="3785" to-port="0" />
		<edge from-layer="3785" from-port="1" to-layer="3795" to-port="0" />
		<edge from-layer="3786" from-port="0" to-layer="3787" to-port="0" />
		<edge from-layer="3787" from-port="1" to-layer="3790" to-port="0" />
		<edge from-layer="3788" from-port="0" to-layer="3789" to-port="0" />
		<edge from-layer="3789" from-port="1" to-layer="3790" to-port="1" />
		<edge from-layer="3790" from-port="2" to-layer="3792" to-port="0" />
		<edge from-layer="3791" from-port="0" to-layer="3792" to-port="1" />
		<edge from-layer="3792" from-port="2" to-layer="3793" to-port="0" />
		<edge from-layer="3793" from-port="1" to-layer="3794" to-port="1" />
		<edge from-layer="3794" from-port="2" to-layer="3795" to-port="1" />
		<edge from-layer="3795" from-port="2" to-layer="3806" to-port="0" />
		<edge from-layer="3796" from-port="0" to-layer="3797" to-port="0" />
		<edge from-layer="3797" from-port="1" to-layer="3800" to-port="0" />
		<edge from-layer="3798" from-port="0" to-layer="3799" to-port="0" />
		<edge from-layer="3799" from-port="1" to-layer="3800" to-port="1" />
		<edge from-layer="3800" from-port="2" to-layer="3802" to-port="0" />
		<edge from-layer="3801" from-port="0" to-layer="3802" to-port="1" />
		<edge from-layer="3802" from-port="2" to-layer="3804" to-port="0" />
		<edge from-layer="3803" from-port="0" to-layer="3804" to-port="1" />
		<edge from-layer="3804" from-port="2" to-layer="3805" to-port="0" />
		<edge from-layer="3805" from-port="1" to-layer="3806" to-port="1" />
		<edge from-layer="3806" from-port="2" to-layer="3807" to-port="1" />
		<edge from-layer="3807" from-port="2" to-layer="3810" to-port="0" />
		<edge from-layer="3807" from-port="2" to-layer="3817" to-port="0" />
		<edge from-layer="3807" from-port="2" to-layer="3955" to-port="0" />
		<edge from-layer="3808" from-port="0" to-layer="3816" to-port="0" />
		<edge from-layer="3809" from-port="0" to-layer="3810" to-port="1" />
		<edge from-layer="3810" from-port="2" to-layer="3812" to-port="0" />
		<edge from-layer="3811" from-port="0" to-layer="3812" to-port="1" />
		<edge from-layer="3812" from-port="2" to-layer="3814" to-port="0" />
		<edge from-layer="3813" from-port="0" to-layer="3814" to-port="1" />
		<edge from-layer="3814" from-port="2" to-layer="3815" to-port="0" />
		<edge from-layer="3815" from-port="1" to-layer="3816" to-port="1" />
		<edge from-layer="3816" from-port="2" to-layer="3817" to-port="1" />
		<edge from-layer="3817" from-port="2" to-layer="3818" to-port="1" />
		<edge from-layer="3818" from-port="2" to-layer="3853" to-port="0" />
		<edge from-layer="3818" from-port="2" to-layer="3913" to-port="0" />
		<edge from-layer="3818" from-port="2" to-layer="3827" to-port="0" />
		<edge from-layer="3819" from-port="0" to-layer="3820" to-port="0" />
		<edge from-layer="3820" from-port="1" to-layer="3823" to-port="0" />
		<edge from-layer="3821" from-port="0" to-layer="3822" to-port="0" />
		<edge from-layer="3822" from-port="1" to-layer="3823" to-port="1" />
		<edge from-layer="3823" from-port="2" to-layer="3825" to-port="0" />
		<edge from-layer="3824" from-port="0" to-layer="3825" to-port="1" />
		<edge from-layer="3825" from-port="2" to-layer="3826" to-port="0" />
		<edge from-layer="3826" from-port="1" to-layer="3827" to-port="1" />
		<edge from-layer="3827" from-port="2" to-layer="3829" to-port="0" />
		<edge from-layer="3828" from-port="0" to-layer="3829" to-port="1" />
		<edge from-layer="3829" from-port="2" to-layer="3831" to-port="0" />
		<edge from-layer="3830" from-port="0" to-layer="3831" to-port="1" />
		<edge from-layer="3831" from-port="2" to-layer="3832" to-port="1" />
		<edge from-layer="3832" from-port="2" to-layer="3936" to-port="0" />
		<edge from-layer="3832" from-port="2" to-layer="3833" to-port="0" />
		<edge from-layer="3834" from-port="0" to-layer="3839" to-port="0" />
		<edge from-layer="3835" from-port="0" to-layer="3838" to-port="1" />
		<edge from-layer="3836" from-port="0" to-layer="3838" to-port="2" />
		<edge from-layer="3837" from-port="0" to-layer="3838" to-port="3" />
		<edge from-layer="3838" from-port="4" to-layer="3839" to-port="1" />
		<edge from-layer="3839" from-port="2" to-layer="3840" to-port="0" />
		<edge from-layer="3840" from-port="1" to-layer="3842" to-port="0" />
		<edge from-layer="3841" from-port="0" to-layer="3842" to-port="2" />
		<edge from-layer="3842" from-port="3" to-layer="3872" to-port="0" />
		<edge from-layer="3843" from-port="0" to-layer="3844" to-port="0" />
		<edge from-layer="3844" from-port="1" to-layer="3847" to-port="0" />
		<edge from-layer="3845" from-port="0" to-layer="3846" to-port="0" />
		<edge from-layer="3846" from-port="1" to-layer="3847" to-port="1" />
		<edge from-layer="3847" from-port="2" to-layer="3849" to-port="0" />
		<edge from-layer="3848" from-port="0" to-layer="3849" to-port="1" />
		<edge from-layer="3849" from-port="2" to-layer="3851" to-port="0" />
		<edge from-layer="3850" from-port="0" to-layer="3851" to-port="1" />
		<edge from-layer="3851" from-port="2" to-layer="3852" to-port="0" />
		<edge from-layer="3852" from-port="1" to-layer="3853" to-port="1" />
		<edge from-layer="3853" from-port="2" to-layer="3855" to-port="0" />
		<edge from-layer="3854" from-port="0" to-layer="3855" to-port="1" />
		<edge from-layer="3855" from-port="2" to-layer="3857" to-port="0" />
		<edge from-layer="3856" from-port="0" to-layer="3857" to-port="1" />
		<edge from-layer="3857" from-port="2" to-layer="3862" to-port="0" />
		<edge from-layer="3857" from-port="2" to-layer="3858" to-port="0" />
		<edge from-layer="3857" from-port="2" to-layer="3868" to-port="0" />
		<edge from-layer="3858" from-port="2" to-layer="3871" to-port="0" />
		<edge from-layer="3859" from-port="0" to-layer="3862" to-port="1" />
		<edge from-layer="3860" from-port="0" to-layer="3862" to-port="2" />
		<edge from-layer="3861" from-port="0" to-layer="3862" to-port="3" />
		<edge from-layer="3862" from-port="5" to-layer="3864" to-port="0" />
		<edge from-layer="3863" from-port="0" to-layer="3864" to-port="1" />
		<edge from-layer="3864" from-port="2" to-layer="3869" to-port="0" />
		<edge from-layer="3865" from-port="0" to-layer="3868" to-port="1" />
		<edge from-layer="3866" from-port="0" to-layer="3868" to-port="2" />
		<edge from-layer="3867" from-port="0" to-layer="3868" to-port="3" />
		<edge from-layer="3868" from-port="5" to-layer="3869" to-port="1" />
		<edge from-layer="3869" from-port="2" to-layer="3870" to-port="0" />
		<edge from-layer="3870" from-port="2" to-layer="3871" to-port="1" />
		<edge from-layer="3871" from-port="2" to-layer="3872" to-port="1" />
		<edge from-layer="3872" from-port="2" to-layer="3873" to-port="0" />
		<edge from-layer="3872" from-port="2" to-layer="3932" to-port="0" />
		<edge from-layer="3902" from-port="0" to-layer="4014" to-port="0" />
		<edge from-layer="3903" from-port="0" to-layer="3904" to-port="0" />
		<edge from-layer="3904" from-port="1" to-layer="3907" to-port="0" />
		<edge from-layer="3905" from-port="0" to-layer="3906" to-port="0" />
		<edge from-layer="3906" from-port="1" to-layer="3907" to-port="1" />
		<edge from-layer="3907" from-port="2" to-layer="3909" to-port="0" />
		<edge from-layer="3908" from-port="0" to-layer="3909" to-port="1" />
		<edge from-layer="3909" from-port="2" to-layer="3911" to-port="0" />
		<edge from-layer="3910" from-port="0" to-layer="3911" to-port="1" />
		<edge from-layer="3911" from-port="2" to-layer="3912" to-port="0" />
		<edge from-layer="3912" from-port="1" to-layer="3913" to-port="1" />
		<edge from-layer="3913" from-port="2" to-layer="3915" to-port="0" />
		<edge from-layer="3914" from-port="0" to-layer="3915" to-port="1" />
		<edge from-layer="3915" from-port="2" to-layer="3917" to-port="0" />
		<edge from-layer="3916" from-port="0" to-layer="3917" to-port="1" />
		<edge from-layer="3917" from-port="2" to-layer="3918" to-port="0" />
		<edge from-layer="3917" from-port="2" to-layer="3922" to-port="0" />
		<edge from-layer="3917" from-port="2" to-layer="3928" to-port="0" />
		<edge from-layer="3918" from-port="2" to-layer="3931" to-port="0" />
		<edge from-layer="3919" from-port="0" to-layer="3922" to-port="1" />
		<edge from-layer="3920" from-port="0" to-layer="3922" to-port="2" />
		<edge from-layer="3921" from-port="0" to-layer="3922" to-port="3" />
		<edge from-layer="3922" from-port="5" to-layer="3924" to-port="0" />
		<edge from-layer="3923" from-port="0" to-layer="3924" to-port="1" />
		<edge from-layer="3924" from-port="2" to-layer="3929" to-port="0" />
		<edge from-layer="3925" from-port="0" to-layer="3928" to-port="1" />
		<edge from-layer="3926" from-port="0" to-layer="3928" to-port="2" />
		<edge from-layer="3927" from-port="0" to-layer="3928" to-port="3" />
		<edge from-layer="3928" from-port="5" to-layer="3929" to-port="1" />
		<edge from-layer="3929" from-port="2" to-layer="3930" to-port="0" />
		<edge from-layer="3930" from-port="2" to-layer="3931" to-port="1" />
		<edge from-layer="3931" from-port="2" to-layer="3940" to-port="0" />
		<edge from-layer="3932" from-port="2" to-layer="3933" to-port="0" />
		<edge from-layer="3933" from-port="2" to-layer="3935" to-port="0" />
		<edge from-layer="3934" from-port="0" to-layer="3935" to-port="1" />
		<edge from-layer="3935" from-port="2" to-layer="3940" to-port="1" />
		<edge from-layer="3936" from-port="2" to-layer="3937" to-port="0" />
		<edge from-layer="3937" from-port="2" to-layer="3939" to-port="0" />
		<edge from-layer="3938" from-port="0" to-layer="3939" to-port="1" />
		<edge from-layer="3939" from-port="2" to-layer="3940" to-port="2" />
		<edge from-layer="3940" from-port="4" to-layer="3942" to-port="0" />
		<edge from-layer="3941" from-port="0" to-layer="3942" to-port="1" />
		<edge from-layer="3942" from-port="2" to-layer="3943" to-port="0" />
		<edge from-layer="3943" from-port="2" to-layer="3954" to-port="0" />
		<edge from-layer="3944" from-port="0" to-layer="3945" to-port="0" />
		<edge from-layer="3945" from-port="1" to-layer="3948" to-port="0" />
		<edge from-layer="3946" from-port="0" to-layer="3947" to-port="0" />
		<edge from-layer="3947" from-port="1" to-layer="3948" to-port="1" />
		<edge from-layer="3948" from-port="2" to-layer="3950" to-port="0" />
		<edge from-layer="3949" from-port="0" to-layer="3950" to-port="1" />
		<edge from-layer="3950" from-port="2" to-layer="3952" to-port="0" />
		<edge from-layer="3951" from-port="0" to-layer="3952" to-port="1" />
		<edge from-layer="3952" from-port="2" to-layer="3953" to-port="0" />
		<edge from-layer="3953" from-port="1" to-layer="3954" to-port="1" />
		<edge from-layer="3954" from-port="2" to-layer="3955" to-port="1" />
		<edge from-layer="3955" from-port="2" to-layer="3959" to-port="0" />
		<edge from-layer="3955" from-port="2" to-layer="3966" to-port="0" />
		<edge from-layer="3955" from-port="2" to-layer="4003" to-port="0" />
		<edge from-layer="3956" from-port="0" to-layer="3967" to-port="0" />
		<edge from-layer="3957" from-port="0" to-layer="3965" to-port="0" />
		<edge from-layer="3958" from-port="0" to-layer="3959" to-port="1" />
		<edge from-layer="3959" from-port="2" to-layer="3961" to-port="0" />
		<edge from-layer="3960" from-port="0" to-layer="3961" to-port="1" />
		<edge from-layer="3961" from-port="2" to-layer="3963" to-port="0" />
		<edge from-layer="3962" from-port="0" to-layer="3963" to-port="1" />
		<edge from-layer="3963" from-port="2" to-layer="3964" to-port="0" />
		<edge from-layer="3964" from-port="1" to-layer="3965" to-port="1" />
		<edge from-layer="3965" from-port="2" to-layer="3966" to-port="1" />
		<edge from-layer="3966" from-port="2" to-layer="3967" to-port="1" />
		<edge from-layer="3967" from-port="2" to-layer="3978" to-port="0" />
		<edge from-layer="3967" from-port="2" to-layer="3990" to-port="0" />
		<edge from-layer="3968" from-port="0" to-layer="3969" to-port="0" />
		<edge from-layer="3969" from-port="1" to-layer="3972" to-port="0" />
		<edge from-layer="3970" from-port="0" to-layer="3971" to-port="0" />
		<edge from-layer="3971" from-port="1" to-layer="3972" to-port="1" />
		<edge from-layer="3972" from-port="2" to-layer="3974" to-port="0" />
		<edge from-layer="3973" from-port="0" to-layer="3974" to-port="1" />
		<edge from-layer="3974" from-port="2" to-layer="3976" to-port="0" />
		<edge from-layer="3975" from-port="0" to-layer="3976" to-port="1" />
		<edge from-layer="3976" from-port="2" to-layer="3977" to-port="0" />
		<edge from-layer="3977" from-port="1" to-layer="3978" to-port="1" />
		<edge from-layer="3978" from-port="2" to-layer="3979" to-port="0" />
		<edge from-layer="3979" from-port="1" to-layer="3991" to-port="0" />
		<edge from-layer="3980" from-port="0" to-layer="3981" to-port="0" />
		<edge from-layer="3981" from-port="1" to-layer="3984" to-port="0" />
		<edge from-layer="3982" from-port="0" to-layer="3983" to-port="0" />
		<edge from-layer="3983" from-port="1" to-layer="3984" to-port="1" />
		<edge from-layer="3984" from-port="2" to-layer="3986" to-port="0" />
		<edge from-layer="3985" from-port="0" to-layer="3986" to-port="1" />
		<edge from-layer="3986" from-port="2" to-layer="3988" to-port="0" />
		<edge from-layer="3987" from-port="0" to-layer="3988" to-port="1" />
		<edge from-layer="3988" from-port="2" to-layer="3989" to-port="0" />
		<edge from-layer="3989" from-port="1" to-layer="3990" to-port="1" />
		<edge from-layer="3990" from-port="2" to-layer="3991" to-port="1" />
		<edge from-layer="3991" from-port="2" to-layer="4002" to-port="0" />
		<edge from-layer="3992" from-port="0" to-layer="3993" to-port="0" />
		<edge from-layer="3993" from-port="1" to-layer="3996" to-port="0" />
		<edge from-layer="3994" from-port="0" to-layer="3995" to-port="0" />
		<edge from-layer="3995" from-port="1" to-layer="3996" to-port="1" />
		<edge from-layer="3996" from-port="2" to-layer="3998" to-port="0" />
		<edge from-layer="3997" from-port="0" to-layer="3998" to-port="1" />
		<edge from-layer="3998" from-port="2" to-layer="4000" to-port="0" />
		<edge from-layer="3999" from-port="0" to-layer="4000" to-port="1" />
		<edge from-layer="4000" from-port="2" to-layer="4001" to-port="0" />
		<edge from-layer="4001" from-port="1" to-layer="4002" to-port="1" />
		<edge from-layer="4002" from-port="2" to-layer="4003" to-port="1" />
		<edge from-layer="4003" from-port="2" to-layer="4006" to-port="0" />
		<edge from-layer="4003" from-port="2" to-layer="4013" to-port="0" />
		<edge from-layer="4004" from-port="0" to-layer="4012" to-port="0" />
		<edge from-layer="4005" from-port="0" to-layer="4006" to-port="1" />
		<edge from-layer="4006" from-port="2" to-layer="4008" to-port="0" />
		<edge from-layer="4007" from-port="0" to-layer="4008" to-port="1" />
		<edge from-layer="4008" from-port="2" to-layer="4010" to-port="0" />
		<edge from-layer="4009" from-port="0" to-layer="4010" to-port="1" />
		<edge from-layer="4010" from-port="2" to-layer="4011" to-port="0" />
		<edge from-layer="4011" from-port="1" to-layer="4012" to-port="1" />
		<edge from-layer="4012" from-port="2" to-layer="4013" to-port="1" />
		<edge from-layer="4013" from-port="2" to-layer="4014" to-port="1" />
		<edge from-layer="4014" from-port="2" to-layer="4023" to-port="0" />
		<edge from-layer="4015" from-port="0" to-layer="4016" to-port="0" />
		<edge from-layer="4016" from-port="1" to-layer="4019" to-port="0" />
		<edge from-layer="4017" from-port="0" to-layer="4018" to-port="0" />
		<edge from-layer="4018" from-port="1" to-layer="4019" to-port="1" />
		<edge from-layer="4019" from-port="2" to-layer="4021" to-port="0" />
		<edge from-layer="4020" from-port="0" to-layer="4021" to-port="1" />
		<edge from-layer="4021" from-port="2" to-layer="4022" to-port="0" />
		<edge from-layer="4022" from-port="1" to-layer="4023" to-port="1" />
		<edge from-layer="4023" from-port="2" to-layer="4024" to-port="0" />
	</edges>
	<rt_info>
		<Runtime_version value="2025.0.0-17685-844809eb974" />
		<conversion_parameters>
			<framework value="pytorch" />
			<is_python_object value="True" />
		</conversion_parameters>
		<nncf>
			<friendly_names_were_updated value="True" />
			<weight_compression>
				<advanced_parameters value="{'statistics_path': None, 'awq_params': {'subset_size': 32, 'percent_to_apply': 0.002, 'alpha_min': 0.0, 'alpha_max': 1.0, 'steps': 100}, 'scale_estimation_params': {'subset_size': 64, 'initial_steps': 5, 'scale_steps': 5, 'weight_penalty': -1.0}, 'gptq_params': {'damp_percent': 0.1, 'block_size': 128, 'subset_size': 128}, 'lora_correction_params': {'adapter_rank': 8, 'num_iterations': 3, 'apply_regularization': True, 'subset_size': 128, 'use_int8_adapters': True}}" />
				<all_layers value="False" />
				<awq value="False" />
				<backup_mode value="int8_asym" />
				<gptq value="False" />
				<group_size value="128" />
				<ignored_scope value="[]" />
				<lora_correction value="False" />
				<mode value="int4_asym" />
				<ratio value="0.8" />
				<scale_estimation value="False" />
				<sensitivity_metric value="weight_quantization_error" />
			</weight_compression>
		</nncf>
		<optimum>
			<optimum_intel_version value="1.22.0.dev0+ea6fa42" />
			<optimum_version value="1.24.0.dev0" />
			<pytorch_version value="2.5.0" />
			<transformers_version value="4.46.2" />
		</optimum>
		<runtime_options>
			<ACTIVATIONS_SCALE_FACTOR value="8.0" />
		</runtime_options>
	</rt_info>
</net>
